Part4_Neural-Network-for-Collision-Prediction/saved/saved_model.pkl (torch_old, 26331 bytes, 5 tensors)

lin_layer_1.weight f4 [75, 6]
0	0xbe3ae583	-0.18251614
1	0x3e7e70e4	0.24847752
2	0xbdeb8f78	-0.11501974
3	0x3e245e1c	0.16051525
4	0xbe04a931	-0.12955166
5	0x3e570663	0.2099853
6	0x3f90d5d0	1.131525
7	0xbf31871c	-0.69346786
8	0xc02cabb0	-2.697979
9	0x3f299f39	0.6625858
10	0xbd25305a	-0.040329315
11	0x3e5ef61b	0.2177357
12	0xbd0bcb21	-0.034129266
13	0x3f1a3cbf	0.6024894
14	0xbe147451	-0.14497496
15	0xc0426d8c	-3.0379362
16	0x3eff91cc	0.49915922
17	0xbf50d902	-0.8158113
18	0x3db05a42	0.08610965
19	0xbf8755e1	-1.0573083
20	0xbb2c9c52	-0.0026338291
21	0xbe28b876	-0.16476616
22	0x3de8051e	0.11329101
23	0xbcaf589c	-0.021404557
24	0xc0ac9868	-5.3936043
25	0x3e4aefe9	0.19818081
26	0xbec969d9	-0.39338568
27	0x3eaa4783	0.33257684
28	0x3f0c749c	0.5486543
29	0x3ee684ce	0.45023197
30	0xc020e3a7	-2.5138948
31	0x3fcaed79	1.5853721
32	0x3ef6eff9	0.4822996
33	0x3f72d266	0.9485229
34	0xbc4d2f07	-0.012523419
35	0xc0147557	-2.3196619
36	0x3ece5faa	0.4030736
37	0x3e6dad29	0.23210587
38	0xbf8b34c5	-1.0875479
39	0xbf4ac0d1	-0.79200464
40	0x3d6d490a	0.057930984
41	0xbdc630cf	-0.09677278
42	0x3ea066c2	0.31328398
43	0xbc9d7bbb	-0.019224038
44	0x3ece7170	0.4032092
45	0xc04bde1e	-3.185432
46	0x3a076969	0.00051655486
47	0xbf289c01	-0.65863043
48	0xbec268ed	-0.37970677
49	0xbe3d31ea	-0.18476072
50	0xbea1df07	-0.3161547
51	0xbc8d1bf0	-0.017225236
52	0x3dfeb978	0.12437719
53	0xbe87f388	-0.26552987
54	0x3e5d3c3e	0.21605012
55	0x3e81ef60	0.2537794
56	0xc04a6508	-3.1624165
57	0xbf4fe9e4	-0.81216264
58	0x3e8257cd	0.25457612
59	0x3d9e2e17	0.07723635
60	0xbeb3ffcc	-0.35156095
61	0xc030f789	-2.7651083
62	0x3eb6f827	0.357362
63	0x3ec5e5a7	0.38651773
64	0xbf5baedd	-0.85813695
65	0x3f5a8bcf	0.8536958
66	0x3e835ae6	0.25655288
67	0x3eacf2a5	0.33778873
68	0xbe21d14b	-0.15802495
69	0xbd668468	-0.056278616
70	0x3f31eb22	0.6949941
71	0x3f7e5f22	0.9936391
72	0xbf85a925	-1.0442244
73	0x3eae306c	0.34021318
74	0x3f5b5b2e	0.85686004
75	0xc02ab7e6	-2.6674743
76	0x3f92b336	1.1460941
77	0xbe8ed9a9	-0.27900437
78	0xbdc134b0	-0.094338775
79	0xbe1764cc	-0.14784545
80	0xbe88d192	-0.2672239
81	0xbec26a7a	-0.3797186
82	0xbe82907e	-0.25500864
83	0x3da7e3d8	0.081977546
84	0xbef18d2a	-0.47178012
85	0x3dafb4f1	0.08579434
86	0x3e159708	0.14608395
87	0x3e35c042	0.17749122
88	0xbebf8e82	-0.37413412
89	0xbf7276ba	-0.9471241
90	0xbea48cbb	-0.3213862
91	0x3eb5afec	0.3548578
92	0xbece589a	-0.40301973
93	0xbe028eb0	-0.12749743
94	0xbdd3becc	-0.10339126
95	0xbe790437	-0.24318014
96	0x3ea5d656	0.32390088
97	0xbfc2fe75	-1.5233904
98	0x3f504ddc	0.81368804
99	0xbec74e20	-0.38926792
100	0xbf7a60e4	-0.97804093
101	0x3eb83e2c	0.35984933
102	0x3e9d4b4d	0.30721512
103	0x3ea12dc3	0.31480226
104	0x3f49e42a	0.78863776
105	0x3e9dd3e8	0.30825734
106	0xc0817bb2	-4.0463495
107	0xc01fd076	-2.4970984
108	0x3ec4247d	0.38309088
109	0xbe835e9e	-0.25658125
110	0x3f83fbc1	1.0311204
111	0xbf9ed30a	-1.2408154
112	0x3fb4ad5a	1.4115403
113	0x3e8c4fce	0.27404636
114	0xbea40eb1	-0.3204246
115	0x3def38f3	0.11680784
116	0xbe1571fa	-0.1459426
117	0x3e6a6578	0.2289027
118	0x3ca1215c	0.019669227
119	0xbdcd5abe	-0.10027073
120	0x3eda7160	0.42664623
121	0x3e3a1542	0.18172172
122	0x3ceef2f5	0.029168585
123	0xbf0c229c	-0.5474031
124	0xc06b68f1	-3.67828
125	0xbfcc98ef	-1.5984172
126	0xbf83631d	-1.0264622
127	0xc01e6096	-2.4746451
128	0xbf00be14	-0.50290036
129	0xbea7491c	-0.32672966
130	0x3f46b0ca	0.7761351
131	0xbc61c8b9	-0.013780766
132	0x3f193449	0.59845406
133	0xbe2ba987	-0.16763888
134	0x3ea235c0	0.31681633
135	0xbf118fd0	-0.56860065
136	0x3fdba9da	1.716121
137	0xbff551bc	-1.9165568
138	0xbeea6695	-0.4578139
139	0x3f498800	0.78723145
140	0xbe612a16	-0.21988711
141	0xbe2e00b2	-0.16992453
142	0x3e1b3a06	0.15158853
143	0x3f4db772	0.8035804
144	0xbec38ea1	-0.38194755
145	0x3e95d7de	0.29266256
146	0xbe414e37	-0.18877493
147	0x3e1dc93c	0.15408796
148	0x3d37ca40	0.044870615
149	0xbe7f644a	-0.24940601
150	0x3ee15fca	0.44018394
151	0xbf01f9e8	-0.5077195
152	0xbf86c93b	-1.0530161
153	0x3dc3e40b	0.0956498
154	0xbf2dc4db	-0.678785
155	0x3e572749	0.2101108
156	0xbee581aa	-0.44825488
157	0x3f791e39	0.9731174
158	0xbfaf14bb	-1.3678201
159	0xc00eebaa	-2.2331338
160	0xbe2cdc1b	-0.16880839
161	0x3faf7057	1.3706158
162	0x3fc516b7	1.5397557
163	0xbf868bd9	-1.0511428
164	0x3eed4b01	0.46346286
165	0xbc0257a6	-0.007955467
166	0xbf6726c7	-0.90293545
167	0xbff447fb	-1.9084467
168	0x3e591f47	0.21203338
169	0xbf8f7b57	-1.1209515
170	0x3f06c6db	0.5264718
171	0xbf7c2bba	-0.9850422
172	0x3e9e18ae	0.30878204
173	0x3e83286f	0.25616786
174	0x3f9fbd54	1.2479653
175	0xbf475c9d	-0.7787569
176	0xbeb8f668	-0.36125493
177	0x3ef442cd	0.47707215
178	0xbea35221	-0.31898597
179	0x4006e491	2.1077006
180	0xbec7817d	-0.3896598
181	0xbed3faca	-0.41402274
182	0x3f620e56	0.88303125
183	0xbf97f91a	-1.1872895
184	0x3f3b7a5b	0.73233575
185	0x3fd4e416	1.6632106
186	0x3ed66a7c	0.41878116
187	0xbe159efa	-0.14611426
188	0xbecfaa67	-0.40559694
189	0x3e0d7f35	0.13818057
190	0xbdaa8680	-0.08326435
191	0xbe9eb856	-0.31000012
192	0x3cb619f3	0.02222917
193	0xbee7d638	-0.45280623
194	0x3f05ea6b	0.5231082
195	0x3eecffc1	0.46288875
196	0xc048b93d	-3.136306
197	0x3ff6a09b	1.9267763
198	0x3e9d3a1a	0.3070839
199	0xc0510978	-3.266203
200	0xbd080efd	-0.03321742
201	0x3e8a95d0	0.27067423
202	0x3f48fd20	0.7851124
203	0xbf4516ce	-0.7698792
204	0x3e9610db	0.29309735
205	0xbfc8f84e	-1.5700777
206	0x3ecc4b8e	0.39901394
207	0x3f22b150	0.6355181
208	0xbe8b831d	-0.2724847
209	0xbf127de1	-0.57223326
210	0xbf171c20	-0.5902729
211	0xbf30e163	-0.6909391
212	0xbf7d4ce7	-0.9894547
213	0xbf484d4d	-0.7824295
214	0x3f483808	0.78210497
215	0x3fa04bd4	1.2523141
216	0xbdb17335	-0.08664552
217	0x3dea596c	0.11442837
218	0x3e2c9608	0.16854107
219	0xbe995468	-0.2994721
220	0xbda79a03	-0.08183672
221	0x3d9cda7d	0.07658861
222	0xbf8570ce	-1.042505
223	0x3f927c58	1.1444197
224	0xbe56cc3d	-0.20976348
225	0xbd07a4de	-0.033116214
226	0x3f84ceff	1.037567
227	0xc02ade44	-2.669816
228	0xbf4e0a88	-0.8048482
229	0x3f015ce0	0.5053234
230	0x3f17bbfa	0.59271204
231	0x3e2eb896	0.17062601
232	0xbfe44a70	-1.7835217
233	0x3f81ddb0	1.0145779
234	0x3edc1594	0.42985213
235	0xbed2ab6a	-0.41146404
236	0xbe8f1955	-0.27949014
237	0xbfff4ab6	-1.9944675
238	0x3de8939a	0.11356278
239	0xbf91dfd3	-1.1396431
240	0xbebc1e0c	-0.36741674
241	0xbd375b28	-0.044764668
242	0xbe733581	-0.23750879
243	0xbe36fa28	-0.17868865
244	0xbe887d18	-0.2665794
245	0x3e851fde	0.26000875
246	0x3d67480b	0.05646519
247	0xbe1a3977	-0.15060984
248	0xbca72420	-0.020402968
249	0xbde74d0f	-0.11293995
250	0x3d95cc2f	0.073143356
251	0xbe7c2f8f	-0.24627517
252	0x3db9ee39	0.090786405
253	0xbf6a7bfa	-0.91595423
254	0x3f295359	0.66142803
255	0x3f19ce16	0.6008009

lin_layer_1.bias f4 [75]
0	0xbec3737b	-0.38174042
1	0x3e4e9add	0.20176263
2	0x3f4074aa	0.75178015
3	0x3ca5e58d	0.02025106
4	0x3ea05162	0.3131209
5	0x3e160d32	0.14653471
6	0xbe76a973	-0.24088077
7	0x3f8c87dd	1.0978962
8	0xbeafa0ab	-0.34302267
9	0x3f94152b	1.156896
10	0x3f2c3911	0.67274576
11	0xbfa7ae4e	-1.3100069
12	0x3f2b0d74	0.668174
13	0xbea50115	-0.32227388
14	0x3f0036ea	0.5008379
15	0xbe80359c	-0.250409
16	0x3f7cce8a	0.98752654
17	0x3e025f2a	0.12731615
18	0xbf7d336e	-0.989066
19	0xbe80627a	-0.25075132
20	0x3f77d384	0.9680712
21	0x3f8e76e7	1.1130036
22	0xbe0cd373	-0.13752536
23	0xbf098c57	-0.53729767
24	0xbeb8acef	-0.36069438
25	0x3f691ef0	0.9106283
26	0x3efbc6d2	0.49175125
27	0x3eb6b4eb	0.35684904
28	0x3ec891a7	0.39173624
29	0xbfa234a3	-1.2672313
30	0xbf12a541	-0.5728341
31	0xbebdc755	-0.3706614
32	0xbf25af55	-0.6472066
33	0x3ed6126d	0.41810933
34	0x3f0280ef	0.5097799
35	0x3e9a7804	0.3016969
36	0xbe880f1d	-0.2657403
37	0x3f01d91b	0.507219
38	0x3da75bda	0.08171816
39	0x3fb2e613	1.3976463
40	0xbead6393	-0.33865032
41	0xbd88d4c3	-0.06681206
42	0xbe8aeeba	-0.2713526
43	0x3f69e561	0.9136563
44	0x3ea3d2c3	0.31996736
45	0x3eeb2201	0.4592438
46	0xbf1e4421	-0.61822706
47	0xbeb15d30	-0.3464141
48	0x3e9ddcce	0.30832523
49	0xbdd40ec5	-0.103543796
50	0x3edddb90	0.43331575
51	0xbf10cc16	-0.5656141
52	0xbe837f93	-0.2568327
53	0xbe4c520a	-0.1995317
54	0x3ecdd7be	0.4020366
55	0xbeb3e28a	-0.35133773
56	0x3d4a2a19	0.049356554
57	0x3e0f2641	0.13979436
58	0x3f8d83d5	1.1055857
59	0xbedaa3db	-0.42703137
60	0x3edc8e74	0.43077433
61	0x3fb8504b	1.4399503
62	0xbe610c80	-0.21977425
63	0xbf82f40b	-1.0230726
64	0xbc15b44f	-0.009137227
65	0x3f8dcc4d	1.1077973
66	0x3cfb92e6	0.030709695
67	0x3eab5c63	0.33468923
68	0xbfa56990	-1.292284
69	0xbeda12b0	-0.42592382
70	0xbe1a42e2	-0.15064576
71	0x3e7c05f9	0.24611653
72	0xbd55a979	-0.052163575
73	0xbf03582b	-0.5130641
74	0x3f4193f8	0.7561641

lin_layer_2.weight f4 [75, 75]
0	0xbd067696	-0.032827936
1	0xbce825cf	-0.028338341
2	0xbe179a91	-0.14805056
3	0xbe368fa3	-0.1782823
4	0xbe088a31	-0.13333966
5	0xbdbfbd89	-0.09362323
6	0x3d77f643	0.060537588
7	0xbe451eda	-0.1925005
8	0xbdc54a13	-0.09633269
9	0xbd4cd952	-0.05001194
10	0xbdc21d5a	-0.094782546
11	0xbd9de9a3	-0.07710578
12	0xbdbcb9e4	-0.09215143
13	0xbd85ce93	-0.065335415
14	0xbe976129	-0.29566315
15	0x3deadff8	0.114685
16	0xbe02fa82	-0.12790874
17	0xbd3dec4f	-0.04636794
18	0xbe18cd2a	-0.14922014
19	0xbdce85fc	-0.10084149
20	0x3d1ccb03	0.038279545
21	0xbe129794	-0.14315635
22	0xbe426b61	-0.18986274
23	0xbc636833	-0.0138798235
24	0xbcc199bc	-0.023632877
25	0x3e47a181	0.19495203
26	0xbda4f583	-0.0805464
27	0x3c9a153e	0.018808957
28	0xbd454788	-0.04816392
29	0x3da2a71d	0.079420306
30	0x3d1273b5	0.035754878
31	0x3d841548	0.064493716
32	0x3deb2b73	0.11482897
33	0xbdc64929	-0.09681923
34	0xbc1c1c8c	-0.0095282905
35	0x3d0f99d7	0.035058822
36	0x3c853064	0.016258426
37	0x3dac897b	0.0842466
38	0xbd7e317c	-0.06205891
39	0xbdbf8cb9	-0.093530126
40	0xbc94b1b0	-0.018151134
41	0x3d58e0e7	0.05294886
42	0xbcab439b	-0.02090626
43	0x3ba4ee33	0.0050332784
44	0xbe3792bb	-0.17927067
45	0xbc33e9e3	-0.010981056
46	0x3db729ce	0.089435205
47	0x3d1763bc	0.03696035
48	0xbedac50d	-0.42728463
49	0x3ab251f4	0.0013604746
50	0xbe47f1d3	-0.19525842
51	0xbdde6606	-0.10859303
52	0x3c80bf70	0.015716285
53	0xbe14c462	-0.14528039
54	0x3db24068	0.08703691
55	0x3c8806b2	0.016604755
56	0xbdde6402	-0.10858919
57	0x3e2f85dc	0.17140907
58	0xbe119478	-0.14216793
59	0xbd455a29	-0.048181687
60	0x3df87962	0.12132527
61	0x3d245d71	0.040128175
62	0x3d96fdec	0.073726505
63	0x3dad8a6c	0.084736675
64	0xbdf75048	-0.12075859
65	0x3daae386	0.08344178
66	0xbd3199bd	-0.043359507
67	0xbdfb6c0b	-0.12276467
68	0x3e037975	0.12839301
69	0xbe25f56a	-0.162069
70	0xbde3372a	-0.11094506
71	0xbe2c6aae	-0.1683757
72	0xbd6e831e	-0.05823051
73	0x3d8d2752	0.068922654
74	0xbd968c8e	-0.073510274
75	0xbddb5a26	-0.10710554
76	0xc082a2e0	-4.082382
77	0x3f71b93a	0.9442326
78	0xc0039fa9	-2.05662
79	0xc086577c	-4.1981792
80	0x3e26b316	0.16279253
81	0xbfb87567	-1.4410828
82	0x3f9c474e	1.220926
83	0xbdc7256c	-0.097239345
84	0xc033def5	-2.8104832
85	0x3f804b44	1.0022969
86	0xc07716be	-3.860763
87	0xbfe8c5c2	-1.8185351
88	0x3d2cfab8	0.04223129
89	0xc0f59cc1	-7.675385
90	0xbdc0e8b9	-0.09419388
91	0x3f0fdfe8	0.5620103
92	0xc0811538	-4.03384
93	0xbf8da660	-1.1066399
94	0xbc01bc51	-0.007918433
95	0xbeb905a8	-0.36137128
96	0xc0ac7d87	-5.390323
97	0xbe9c250d	-0.30497018
98	0xbeeaee7b	-0.4588507
99	0xbd2e37c2	-0.042533644
100	0xbf1b976f	-0.60777944
101	0x3fec8c03	1.8480228
102	0x3ff31e4e	1.8993623
103	0x3fb66318	1.4248991
104	0xc04858c1	-3.130417
105	0xbf1b2117	-0.60597366
106	0xbd5b70cf	-0.05357438
107	0xc17b7923	-15.717074
108	0x3fe4e651	1.7882787
109	0x3e6bc49f	0.23024224
110	0xbf7e877b	-0.99425477
111	0x3d80a4c5	0.06281427
112	0xc0735df2	-3.802609
113	0xc05c718b	-3.44443
114	0x3f11e15d	0.569845
115	0x3cb94010	0.022613555
116	0xbd86f7fc	-0.06590268
117	0xbf608b00	-0.877121
118	0xbe116b71	-0.14201142
119	0x3ee2ea05	0.44319168
120	0xc06f3502	-3.7376103
121	0xbf0b8396	-0.5449766
122	0x3ca62ceb	0.02028509
123	0xc033914d	-2.8057435
124	0xbde7b983	-0.113146804
125	0xbf73bee6	-0.9521316
126	0xc05d3573	-3.4563873
127	0xbd1b24ce	-0.037876897
128	0xbca6d8e6	-0.020367097
129	0xc10a85fe	-8.657713
130	0xbc7d63b7	-0.015465668
131	0xbf605cba	-0.8764149
132	0xc001b769	-2.0268195
133	0xbe687b59	-0.22703303
134	0x3c81c36a	0.015840251
135	0x3c3fa9ac	0.011698168
136	0xc1b4285a	-22.519703
137	0x3f46a136	0.7758974
138	0xbf509e40	-0.8149147
139	0xbfae8b12	-1.3636191
140	0xc1050c05	-8.315434
141	0x3df519f0	0.11967838
142	0x40754e3c	3.8329
143	0xc077cdeb	-3.8719432
144	0xbe17f400	-0.14839172
145	0xbd3cb40e	-0.04607015
146	0x3f4c189f	0.7972507
147	0xbfe221a4	-1.7666516
148	0xc0e22aa6	-7.067706
149	0x3fb5a762	1.4191706
150	0xbe4fdbe3	-0.20298724
151	0xbf4a208f	-0.7895593
152	0xbf597ae3	-0.84953135
153	0xbfe481e8	-1.7852144
154	0xc1354ce0	-11.331268
155	0xbfbd18e0	-1.4773216
156	0x3f2170ed	0.63062936
157	0xc04ddcc8	-3.2166004
158	0x3b56c9a0	0.0032773986
159	0xbf2636c9	-0.64927346
160	0x3ef08c39	0.4698198
161	0xc0ec9a3a	-7.3938265
162	0x3f49f2dd	0.78886205
163	0xbd0b6bc4	-0.03403832
164	0xbf96e735	-1.1789309
165	0xbdc63219	-0.09677524
166	0x3e21eb18	0.15812337
167	0x3e403c0c	0.18772906
168	0xbef0a77c	-0.4700278
169	0xbe14bdfa	-0.14525595
170	0xbf944cbf	-1.1585921
171	0xc0380592	-2.87534
172	0xbf1b3f8a	-0.6064383
173	0xbfa60295	-1.2969538
174	0xbd935375	-0.071936525
175	0x400bd581	2.1849062
176	0xc00cc846	-2.1997237
177	0xc0851e77	-4.159969
178	0x3fad7ec3	1.355431
179	0xc159baba	-13.608088
180	0xbf501586	-0.8128284
181	0xbf6ee678	-0.9332042
182	0x3fba0a54	1.4534402
183	0x40434640	3.0511627
184	0x3f249ddd	0.6430338
185	0xbf6d945d	-0.9280451
186	0xbc803c84	-0.015653856
187	0xc0293164	-2.6436396
188	0x400bc562	2.1839223
189	0xbf60a610	-0.8775339
190	0x3de5091e	0.111833796
191	0xbd98cad0	-0.074605584
192	0xc010d414	-2.2629442
193	0x3f5d5c2f	0.86468786
194	0x3f0c1e38	0.5473361
195	0x3f83c75b	1.0295213
196	0x3e0412ad	0.12897749
197	0x3de4f0ea	0.11178763
198	0xbe975d16	-0.29563206
199	0xbdab31d8	-0.08359116
200	0xbe608b2e	-0.21928093
201	0xbf2fabae	-0.6862134
202	0xbdc36d2f	-0.095423095
203	0xbcf9e6ae	-0.030505504
204	0xbf1a0f38	-0.6017947
205	0xbdd4847d	-0.10376833
206	0xbf9cf9a5	-1.2263685
207	0x3fe8cb3e	1.8187025
208	0xbf561f02	-0.83641064
209	0xbddd15f1	-0.107952006
210	0x3f2c3b03	0.67277545
211	0xc0567d9b	-3.3514163
212	0x3f2b4707	0.66905254
213	0xc0fc0961	-7.876145
214	0x3e98921e	0.2979898
215	0xc118b1f8	-9.543449
216	0x3dbda999	0.09260864
217	0x403b86bb	2.9300983
218	0xc0b9841a	-5.7973757
219	0xbe2069be	-0.15665337
220	0x3dd15c8c	0.1022273
221	0x3fd0484e	1.6272066
222	0xbf2d6c41	-0.6774331
223	0x3e9ed6c6	0.31023234
224	0x3fd39742	1.6530535
225	0x3d1c0bf3	0.038097333
226	0xbf9b4577	-1.2130574
227	0x400ea30b	2.2287014
228	0x3dde1a82	0.108449
229	0xbeb74f6b	-0.3580278
230	0xbf885329	-1.0650378
231	0xbe8f0529	-0.27933624
232	0x3f10868f	0.5645532
233	0xbbfd8cb0	-0.0077377185
234	0xbf332af5	-0.6998742
235	0x3f36d73d	0.7142218
236	0xbffe7cf9	-1.9881889
237	0x3febc337	1.841895
238	0x3d265e08	0.04061702
239	0x3f5f4bf8	0.87225294
240	0xbdb1b001	-0.08676148
241	0xbe42b4ad	-0.19014235
242	0x3d73363d	0.059377898
243	0x3f52981f	0.8226337
244	0x3cfff41b	0.031244328
245	0x3dd6a6cd	0.104810335
246	0x3f531f58	0.824697
247	0x3f1352d1	0.5754824
248	0xbfd63aa0	-1.6736641
249	0xbdae7172	-0.08517732
250	0x3e0b32fa	0.13593665
251	0x4005069c	2.0785284
252	0x3f96afbb	1.1772379
253	0x3f361447	0.7112469
254	0xbdc93898	-0.098252475
255	0xbf6c76a8	-0.92368555

lin_layer_2.bias f4 [75]
0	0xbe87180f	-0.26385543
1	0xbe29a6f6	-0.16567597
2	0xbf880c4f	-1.0628756
3	0x3e3e4bf1	0.18583657
4	0x3ea09515	0.3136374
5	0xbf989ccf	-1.1922854
6	0xbce4f7ce	-0.027950194
7	0xbed91ef4	-0.42406428
8	0x3f2192a6	0.6311439
9	0xbf742784	-0.95372796
10	0xbdf788ff	-0.12086677
11	0x3cb5be31	0.022185417
12	0x3f95e279	1.1709739
13	0x3f02c6c0	0.5108452
14	0xbcec2743	-0.028827315
15	0x3eab3a28	0.33442807
16	0xbda9f94f	-0.08299505
17	0x3f6d5137	0.9270205
18	0x3cf15fda	0.02946465
19	0x3d7ee660	0.06223142
20	0x3ea032e1	0.31288818
21	0x3e87f712	0.26555687
22	0x3e0ca5e8	0.13735163
23	0xbea51fb6	-0.32250756
24	0xbd813095	-0.063080944
25	0xbe3f9882	-0.18710521
26	0x3f1aafed	0.6042469
27	0xbf83b124	-1.0288434
28	0x3d8e14d1	0.06937564
29	0x3e775e93	0.24157171
30	0x3f8ad028	1.0844774
31	0xbf01fa69	-0.5077272
32	0xbfb40bbc	-1.4066081
33	0x3f1cdc2c	0.61273456
34	0xbeff2b5b	-0.49837765
35	0xbcf0ac15	-0.02937893
36	0x3f36fef6	0.7148279
37	0xbff691bb	-1.9263223
38	0x3e6f6bc1	0.23380949
39	0x3cde9e1f	0.027175007
40	0xbeb0f11a	-0.34558946
41	0xbed4b585	-0.41544738
42	0xbd8a1177	-0.067416124
43	0x3d5ccf9e	0.053908937
44	0x3e6d8e2e	0.23198768
45	0x3edafc08	0.4277041
46	0xbe95608b	-0.2917522
47	0xbfc4e023	-1.5380901
48	0xbcc5406a	-0.024078567
49	0xbf58e563	-0.84725016
50	0x3f85238a	1.0401471
51	0xc0370213	-2.8595016
52	0xbdfe40cd	-0.124147035
53	0xbd9db959	-0.07701368
54	0xbea0eaae	-0.31429046
55	0xbd18479a	-0.03717766
56	0x3e65bd81	0.22435571
57	0xbd7bf718	-0.061514944
58	0xbdeaae73	-0.11459055
59	0xbdc32c3c	-0.095299214
60	0xbf669118	-0.90065145
61	0x3f3cdda4	0.73775697
62	0xbe4bdd4f	-0.19908641
63	0xbf868cc6	-1.0511711
64	0x3e823966	0.25434417
65	0xbf3c227f	-0.73490137
66	0xbddafcf5	-0.10692779
67	0xbf97db77	-1.186385
68	0x3e9379ab	0.28803763
69	0x3f68547f	0.9075393
70	0xbe53ed03	-0.20695882
71	0x3eb85d3d	0.36008635
72	0x3f9f6b15	1.2454554
73	0xbfd3b14f	-1.6538485
74	0xbf87bc66	-1.060437

lin_layer_3.weight f4 [1, 75]
0	0xbb04bc94	-0.0020254003
1	0xbffb40a0	-1.9629097
2	0xc0415e9a	-3.021399
3	0xbf4289a2	-0.7599126
4	0x3f9c6e7a	1.2221215
5	0xbfb176b1	-1.3864347
6	0x3f49c216	0.78811777
7	0xc080fa39	-4.0305448
8	0xbf09ecc5	-0.53876907
9	0xc0350649	-2.8285086
10	0xbbbc9144	-0.0057546217
11	0x405c98ac	3.4468184
12	0xbfb6c7d8	-1.4279737
13	0xbe81d45e	-0.25357336
14	0xbc9c2da7	-0.019064737
15	0x3fb9b898	1.4509459
16	0x3c3c66aa	0.011499086
17	0xc00c7e7f	-2.1952207
18	0xc02977c5	-2.6479352
19	0x3eaa920f	0.3331456
20	0x4039786a	2.8979745
21	0x3eb4eeec	0.35338533
22	0x40033726	2.050241
23	0xc00bfc95	-2.1872914
24	0x3cc3b593	0.023890292
25	0x3b129e80	0.0022372305
26	0xbf888b31	-1.0667478
27	0xc029d2b6	-2.6534858
28	0x3f0d4c0f	0.5519418
29	0xbfe69310	-1.801363
30	0xbf4e406d	-0.80567056
31	0x3f93e2d1	1.1553594
32	0x4020a051	2.509785
33	0xbf29b781	-0.6629563
34	0x3edf25f8	0.43583655
35	0xbca452d9	-0.020059036
36	0xbfb3175c	-1.3991504
37	0xc0240550	-2.5628242
38	0x400be365	2.185754
39	0xbff9b02c	-1.9506888
40	0x40444a6f	3.067043
41	0x3b657be2	0.0035016467
42	0x3bcc88fb	0.0062419153
43	0xc043a36b	-3.0568492
44	0x3e6aadfc	0.22917932
45	0xbf07b929	-0.53016907
46	0x3fd53956	1.6658123
47	0x3fe6d4de	1.8033712
48	0x3b9dcd5b	0.00481574
49	0x3eb849c9	0.35993794
50	0xbeeacc12	-0.45858818
51	0x402c52f0	2.692562
52	0xbed45f36	-0.4147889
53	0x3fbd9ea4	1.4814038
54	0xbc7cfd23	-0.015441212
55	0x3f36a9b9	0.71352726
56	0xbf893cf9	-1.0721732
57	0x3c98c12d	0.0186468
58	0x3f95fd10	1.1717854
59	0x3c95399e	0.01821595
60	0xbfb6bd0f	-1.4276446
61	0xbf21d2ad	-0.6321209
62	0xbfc2f2dc	-1.5230365
63	0xc01ca725	-2.4477017
64	0x4017ca61	2.3717272
65	0xc00f9c25	-2.2439053
66	0x3d3dbb99	0.046321485
67	0x3d85f993	0.06541743
68	0x3f8547e2	1.0412562
69	0xc019d546	-2.4036422
70	0xc01130fc	-2.2686148
71	0x3f855c46	1.0418785
72	0xbf31e7b8	-0.694942
73	0x3fbf90cc	1.4966063
74	0xc00f7d9a	-2.242041
