Part4_Neural-Network-for-Collision-Prediction/saved/saved_model.pkl (torch_old, 3266 bytes, 3 tensors)

lin_layer_1.weight f4 [75, 6]
00000000: 7d1a 893e af32 c53e 752b 123d 2eb0 4a3e
00000010: f416 b33e a98d 57bc 70be 40bf a05e 54bf
00000020: d2d4 a6be 28fa 09bf 3d96 e2bd 4fac 023f
00000030: 2f59 adbe d836 90be 3844 e4be 7a0b 8bbd
00000040: 21b3 393d 38b7 193e f17f e2bc bba4 27be
00000050: 5fa9 8b3e a83d 27be 67be efbe d69e 9fbd
00000060: af14 9c3e c229 8fbe 1c70 ae3d 8fbc 103d
00000070: 3495 f7be f0f7 cabd 0057 463e 8256 d23e
00000080: 5dfa 863e b1d5 bc3e bc85 f03c f033 4e3c
00000090: c974 c0be 9be2 0e3e da77 793e e5c8 863d
000000a0: b58a 183e 007a afbe bddb 65be df41 703e
000000b0: 0c63 f4bd dc06 5d3e 132a 3ebe 8995 acbe
000000c0: 2a30 133e f521 183e 9cf3 443e 6279 183f
000000d0: df61 123f 4e9f a0be 68fb d53e 2699 803e
000000e0: 7e40 0b3f 5072 d33c 577c cabc f660 35bd
000000f0: c105 98ba d307 5f3c 3b9d f93d be37 013f
00000100: e3e9 d43d 936c 34be fac3 0c3f d9bd 003e
00000110: ce05 fc3e 5293 073f c7a0 11be e756 9b3e
00000120: 4048 3b3e 24b0 e4be 4c96 dbbe 312a f4bc
00000130: bd6e 6e3c 15cb 0fbe abb2 9cbe c1b0 633e
00000140: e752 c0bb ff59 bf3e f246 7e3e 165b 39be
00000150: e96a 493e 49be 963e ff4c d1be eb85 e7be
00000160: ef28 7a3e d877 cc3e 09f9 933e f7f9 b7be
00000170: 4a5d b2be add7 7cbd ea71 983d d7a5 c1bd
00000180: d858 16be 9588 ad3e d0f6 8aba f046 303f
00000190: cf14 153f 7552 ae3e bd0b 323f a942 d63e
000001a0: c97b 183f 7852 7f3e 4c88 8b3d 2c02 183e
000001b0: 4627 5bbe 47ac 473e b892 e1bc e41c 663e
000001c0: fd13 50bc 9a5e ab3d 495b e53d cf03 14bf
000001d0: 0eb5 a7be 37e7 fdbe 4e33 0a3e 2eef 5ebe
000001e0: 86cc 13bf b816 01bf fe81 a3be fda4 b0be
000001f0: 5d68 1cbf a6b4 933e 5051 90be 5b03 b8be
00000200: d5c2 803c 0e5b 15bf 0c3d cdbe d809 30be
00000210: 07cf 023f efea da3e 56ec 1e3e ff02 2ab9
00000220: 1484 42be a834 53be b8f2 fd3e 0f1d 053f
00000230: 7f78 9bbe 9c91 cb3e ba32 973e 4b1d a1bd
00000240: 36f4 bbbe 2b0b 4dbe 5769 afbc ba13 8a3e
00000250: dcd3 b53e 643d a0be efaf 17be 7c3e 8c3e
00000260: dae2 dbbe 268f c5be 8d0b 00bf cfa5 b53b
00000270: ece5 d4bd 8e5c c03e 045d 2c3e b760 20be
00000280: 38af 113e f733 5dbe 6cc5 6abe 718b a33e
00000290: 59d7 c5bd 4113 62be d1d7 87be 5813 05be
000002a0: fbab 8c3e 6b05 033f 55b3 49be 11b0 7a3e
000002b0: f3c3 e23c 98c1 83be 2da7 debd 8a07 f8ba
000002c0: 8dd7 f33e 36fa c33e 0f96 e03e 63ad 18be
000002d0: 89a3 28bd 9ec9 d23e b2a2 b93e 3922 183f
000002e0: 5b09 1a3e f74f 453e 1c4b a9be cf82 1ebe
000002f0: 4303 963e 813c 64bd 005d be3e 9588 263e
00000300: b013 ae3d c315 a03c 5944 7cbe 8e3a cfbe
00000310: 0f01 ebbd 595c 88be eb12 cdbe 45f4 00bf
00000320: 7681 8dbe 183c d03b bdec 93be 0e91 efbc
00000330: e41a b63d b8fe 92be 87e8 b73e 0559 233e
00000340: e20c f93e e262 34bd 8017 0d3f ed66 ee3e
00000350: 7d55 323e eb11 163f 9a72 f13e 7bd6 a1bd
00000360: fc3d f1be f727 a3be 6840 4fbe d543 d2be
00000370: 62ab 12bf fa38 aabd 04d8 2f3e 7e5f dbbb
00000380: 521f 8bbd f298 7dbe 220b 62be 4e75 25be
00000390: 74e5 9dbe a0ca 36bf f3c5 6cbe 0beb fbbe
000003a0: 86cb 84be 7710 7dbe 8417 27bd 037e 9f3d
000003b0: 8f3a aabe c9e1 903e 88b8 9dbe 81d9 db3d
000003c0: 24ac bc3d 03ba 35be 9eb3 083e fc7a babe
000003d0: 3fbb a73e e911 b13e 60b1 fdbe 40c7 0bbe
000003e0: e9ee 34be 8b00 18bf 0e76 ae3c 1601 113d
000003f0: 7208 623c a5c9 c33d d05a f53c 8899 eb3e
0.2677802 0.3851523 0.035685975 0.1979377 0.3497845 -0.013156333 -0.75290585 -0.82956886
-0.32584244 -0.53897333 -0.11063812 0.5104417 -0.33857104 -0.28166842 -0.44583297 -0.06789298
0.045336846 0.15011299 -0.027648898 -0.16371433 0.27277657 -0.16332114 -0.46824953 -0.077939674
0.3048453 -0.27961546 0.08517477 0.035336073 -0.4835602 -0.099105716 0.19369125 0.41081625
0.26362887 0.36881784 0.029360645 0.012585625 -0.375891 0.1395363 0.24362126 0.06581286
0.14896663 -0.34272766 -0.22447105 0.23462628 -0.11932954 0.21584648 -0.18570738 -0.33707836
0.14373842 0.14856704 0.19233555 0.59560215 0.5718059 -0.3137154 0.4179337 0.25116843
0.5439528 0.025811344 -0.024717493 -0.044281922 -0.0011598394 0.013612705 0.121881925 0.5047568
0.10396173 -0.17619543 0.54986537 0.12572421 0.4922318 0.5295917 -0.14221488 0.3033974
0.1828928 -0.44665635 -0.42888105 -0.029805275 0.014552769 -0.14042313 -0.30605063 0.22235395
-0.0058692577 0.3737335 0.24831751 -0.18101153 0.19669689 0.2944205 -0.40879056 -0.4521936
0.24429677 0.39935184 0.28900936 -0.35932896 -0.348368 -0.061729122 0.074436024 -0.094554596
-0.14682329 0.33893266 -0.001060212 0.6885824 0.58234876 0.34047285 0.6954916 0.41847733
0.5956388 0.24933803 0.06813106 0.14844579 -0.214017 0.19499312 -0.027535781 0.22471958
-0.012700078 0.08367653 0.11199052 -0.5781831 -0.3275532 -0.49590465 0.13496134 -0.21770927
-0.57733953 -0.5042529 -0.31935114 -0.34500876 -0.61096746 0.2884876 -0.28187037 -0.3594006
0.015717903 -0.58342063 -0.40085638 -0.17191255 0.5109715 0.42757365 0.15519843 -0.0001621358
-0.18995696 -0.20625556 0.49599242 0.51997465 -0.3036537 0.3975953 0.2953089 -0.07866915
-0.36709756 -0.20023791 -0.021412535 0.26968175 0.35513198 -0.31296837 -0.14813207 0.27391422
-0.42946512 -0.38585776 -0.50017625 0.0055434476 -0.103954166 0.37570614 0.16832358 -0.15661894
0.14226997 -0.21601854 -0.22926873 0.31942323 -0.09660215 -0.22077657 -0.26531842 -0.1299566
0.2747496 0.5118014 -0.19697316 0.24481227 0.027681326 -0.25733638 -0.1087173 -0.0018923145
0.4762539 0.38276833 0.43864486 -0.14909892 -0.041171584 0.41169447 0.3625694 0.5942722
0.15042631 0.19268785 -0.33065116 -0.15479587 0.29299363 -0.055721764 0.37180328 0.1626304
0.08499849 0.019541627 -0.24635448 -0.4047436 -0.11474811 -0.26632956 -0.40053496 -0.50372726
-0.27637833 0.00635482 -0.28891554 -0.029243972 0.08891848 -0.2870996 0.35919592 0.15951927
0.4864264 -0.044039614 0.55113983 0.465629 0.17415424 0.5862109 0.47157747 -0.07902237
-0.47117603 -0.31866428 -0.20239413 -0.41067377 -0.5729276 -0.08311649 0.17172247 -0.006694733
-0.06793083 -0.24765375 -0.2207456 -0.1615803 -0.3083912 -0.7140293 -0.23122387 -0.4920276
-0.25936526 -0.24713312 -0.04079391 0.07787707 -0.33247802 0.2829726 -0.3080485 0.10734845
0.09212521 -0.17746739 0.13349769 -0.36421955 0.32760045 0.34583977 -0.4954939 -0.13650227
-0.17669262 -0.5937583 0.021296527 0.035401426 0.013795959 0.09559945 0.02995053 0.46015573

lin_layer_1.bias f4 [75]
00000000: d457 2c3e 085d f93e c7fc 58be e807 2d3c
00000010: e5b3 24be 852c babb e5a0 2f3d 1729 b7bd
00000020: a2e9 373e 7405 9dbe d4ce bcbe ed86 3abe
00000030: ddea ffbd a9c6 25be 878a c53d 0d39 b03c
00000040: 392d eb3d 1e2a ecbe 5100 88be 29ea 89be
00000050: cbd6 183f d770 853e e449 983e 38ee 94be
00000060: adce a63e a1f8 0ebe 24b0 c73e 1ba6 a23d
00000070: 75dd ba3e 99b8 c2be b991 60be a839 75be
00000080: cd14 a6bd f174 0fbd a290 b5be c680 15bf
00000090: abcf be3e 4df9 483d 49a0 233f 37f6 a1be
000000a0: e9ef 1cbe 4a08 b9bd 5aaa b5be 217d a0bd
000000b0: 6bb8 123f 71d0 8cbe 71bf 233e 6d16 9dbd
000000c0: 2b53 543e 4377 36bf 7807 d53e d5a3 103e
000000d0: 9340 30be 7709 943b d459 213f 1704 f2be
000000e0: 1e2c fb3d f54d 943e 43ae e8be d821 0b3e
000000f0: a851 a03e 1463 50bd c5f2 463e 1c95 a7be
00000100: 3bae 223f ca5e af3e 5701 c43d 31ae 033f
00000110: 195e 103f 5247 db3e 7b1b 8c3e d2de 483d
00000120: 3509 5dbd c352 96bd f829 1f3e
0.16830379 0.4870379 -0.21190177 0.010560967 -0.1608425 -0.0056815767 0.04287805 -0.08943384
0.17960218 -0.30668223 -0.36876547 -0.18215533 -0.124959685 -0.16189064 0.096455626 0.021511579
0.11483235 -0.46125883 -0.2656274 -0.26936463 0.5970275 0.26062652 0.29743874 -0.29087996
0.32579556 -0.13962032 0.39001572 0.07941838 0.36497083 -0.38031462 -0.21930589 -0.23947775
-0.08109436 -0.035023633 -0.3546191 -0.5839962 0.37267813 0.049065877 0.6391645 -0.3163316
-0.15325893 -0.09034784 -0.3548153 -0.078363664 0.5731265 -0.27502778 0.15990998 -0.07670293
0.20734851 -0.7127573 0.4160726 0.14124997 -0.17212133 0.00451773 0.6302769 -0.47268745
0.12264274 0.28965726 -0.4544545 0.13587129 0.313123 -0.05087574 0.19428547 -0.3273095
0.63547105 0.34252006 0.09570568 0.5143767 0.5639358 0.4282785 0.27364716 0.049040623
-0.05396386 -0.07340004 0.15543354

lin_layer_2.weight f4 [1, 75]
00000000: 68c6 febe 1a68 cb3f 7713 0e3f e606 d13e
00000010: 911d 983e 3417 f5be e41b 593d 7610 0b3e
00000020: c901 3bbf 89a6 cabe b81d 5abe 6b73 19bf
00000030: d9f2 d53e e5e4 09be 2ce1 a73d 5092 893e
00000040: ea9a 47bf b90f 75bf 730d 8f3c e762 333f
00000050: 2079 b43f 3540 7d3f 9ff9 86be a086 1cbf
00000060: ce37 b83d 859f 2b3f a7db 63bd da2b a53e
00000070: c1a2 94be 3af0 c8be 70e5 25bf 55a7 853d
00000080: 45a5 e03e e83e 653f e753 75be 4bb7 98bf
00000090: c8e2 a63f a4b0 a23e cd53 a83f c1a2 513e
000000a0: bc66 dc3d 77ee 513f 387b 2fbe c8f7 36bf
000000b0: 9ff9 933f 79b3 2a3f b25b 92be 74f7 523f
000000c0: d8a4 6ebe c6f5 b6bf f1fa 853f 0888 00bf
000000d0: 27cc 703f 6334 dcbd afc8 cd3f 4278 11bf
000000e0: 8eea 093f 06b7 563f 3638 52bf 9685 a83f
000000f0: 8e18 c03f 4280 26be a06e 93bd a0a5 35bf
00000100: 8d9a ba3f 9974 a63f 6f9e 9d3f c1b5 993f
00000110: 5fa9 ae3f cf04 e23e 767a 19be 8b20 893f
00000120: fc6b 8f3f 3a49 26bf cfbc db3d
-0.49760747 1.5891144 0.5549845 0.40825576 0.29710057 -0.47869265 0.053005114 0.13580498
-0.730496 -0.3958018 -0.213004 -0.5994174 0.4178684 -0.13466223 0.08197245 0.2686944
-0.77970755 -0.95727116 0.017462468 0.7007279 1.4099464 0.989261 -0.2636232 -0.6114292
0.08995019 0.6704028 -0.0556294 0.3226002 -0.2903042 -0.39245778 -0.6480322 0.06526057
0.4387609 0.8954911 -0.23957787 -1.1930937 1.3037958 0.3177539 1.3150574 0.20472242
0.107617825 0.82004493 -0.17136848 -0.71471834 1.1560553 0.66680104 -0.28585583 0.82408834
-0.2330507 -1.4293754 1.0467206 -0.5020757 0.9406151 -0.107521795 1.6076869 -0.56824124
0.5387353 0.8387302 -0.8211702 1.3165767 1.5007493 -0.16259864 -0.071988344 -0.7095585
1.4578415 1.3004333 1.2313975 1.2008592 1.3645438 0.44144294 -0.14988121 1.0713056
1.1204829 -0.64955485 0.10729372
