Part4_Neural-Network-for-Collision-Prediction/saved/saved_model.pkl (torch_old, 3266 bytes, 3 tensors)

lin_layer_1.weight f4 [75, 6]
-0.35353658 -0.22323762 -0.23514609 -0.5090431 -0.33405474 0.029623393 -0.18660055 -0.27049625
-0.12605764 0.11400443 -0.2607641 0.17508662 0.3245815 0.04812085 0.5377238 0.59195703
0.4004336 0.32365647 0.36793873 -0.33949342 0.19021972 0.09621985 -0.24848722 0.103562765
-0.31922442 -0.044045873 -0.41755918 -0.070305966 0.297798 0.26267046 -0.73974276 -0.6608939
0.32677042 -0.5849352 -0.1702441 0.26600578 0.026138587 0.30693173 -0.08835675 0.17245398
0.4184442 -0.26991025 -0.40131807 -0.20446016 0.35979542 0.3828202 -0.20348829 -0.28693482
-0.07493881 -0.43739313 -0.31568855 0.09298084 -0.20759252 -0.2662194 -0.7465021 -0.8674473
-0.15470213 -0.74527276 -0.66960114 -0.11494997 -0.40357533 -0.24737117 -0.3238698 -0.16064246
-0.27529263 -0.108446114 0.001757156 0.016549814 0.59370595 0.12517576 0.29665735 0.07270081
0.10818013 0.8357776 0.5426918 0.51922375 0.09242819 -0.37848237 -0.52338326 -0.53221935
0.09677103 -0.33522674 -0.65416425 0.10970436 0.17761953 -0.23094611 -0.36963615 -0.57772326
-0.047180437 -0.04752375 0.25908932 0.29305038 -0.41938978 0.23412372 0.052562226 0.13620052
-0.11688431 0.19314209 0.24257754 0.39282852 0.69243515 0.46379322 0.042121135 -0.084150285
0.2768276 0.23271504 0.086818166 -0.07913416 -0.35201123 -0.287795 0.66316223 0.7300442
0.7007847 0.22102466 0.19798052 0.4979824 0.28452557 -0.23226485 -0.14078717 -0.07315936
0.3292698 0.39326578 0.05555538 0.6978295 0.12787694 0.11868324 -0.35338756 0.19583082
-0.33715495 0.10931942 -0.1040552 -0.2781041 -0.82205206 -0.8166771 0.3636279 -0.78630435
-0.10672867 -0.25425753 0.08992433 0.86330265 -0.4916548 -1.5646079 -1.1689225 -0.31360015
-0.29743832 0.3403946 0.12916051 -0.42872745 -0.17797467 0.029579328 0.20605496 -0.38069543
-0.4549465 -0.606047 -0.008825071 -0.14642759 -0.1294999 -0.17841925 0.19407491 0.95114523
0.7669962 0.2519378 -0.101086564 -0.7267587 -0.32753712 -0.46446326 0.13108681 -0.10146098
-0.122197084 -0.33630446 0.29594937 0.6804774 0.46729913 0.4281888 -0.13258877 -0.2854774
0.009992343 -0.6682951 -0.39866036 -0.32420543 0.27165663 -0.029538397 -0.5829741 -0.2923181
-0.37689766 -0.10630281 -0.3658418 -0.53942484 -0.066704296 0.18416494 -0.10930974 0.34558198
0.08484493 0.12213556 0.20278548 -0.32761702 -0.204001 0.355968 0.029812984 0.23408893
-0.42603287 -0.23850949 -0.48271254 0.19389196 0.08921428 0.07406366 0.00025957476 0.39863056
0.17949508 0.17928806 -0.48719305 -0.990414 -0.5111689 0.46195018 -0.12908158 0.23342857
-0.13788192 0.53918946 0.55589 0.1021507 0.569039 0.3312894 -0.7916188 -0.9926844
-0.7983575 0.21673818 0.27052698 -0.048459914 0.3954253 0.32954544 0.5633155 0.00054619124
0.09756577 0.16524014 0.032043543 -0.14851587 0.19540243 -0.18640804 0.09084438 -0.4070953
0.40097252 0.20817263 0.016789557 0.2118492 -0.24900769 0.3587712 -0.013917783 0.14264874
0.3128237 0.5608884 0.38455254 0.2864058 0.16824585 0.23427375 -0.31867546 0.02291456
00000000: bf02 b5be 6798 64be 23ca 70be a650 02bf
00000010: 3909 abbe c2ac f23c 3714 3fbe 7c7e 8abe
00000020: 4115 01be 287b e93d df82 85be e849 333e
00000030: 8c2f a63e 5e1a 453d 44a8 093f 7f8a 173f
00000040: a205 cd3e 4db6 a53e 7762 bc3e 15d2 adbe
00000050: f5c8 423e ea0e c53d 6f73 7ebe b718 d43d
00000060: 6271 a3be 7269 34bd 51ca d5be 93fc 8fbd
00000070: fb78 983e be7c 863e c85f 3dbf 5830 29bf
00000080: 744e a73e 50be 15bf 7854 2ebe e931 883e
00000090: 9720 d63c 2826 9d3e 62f4 b4bd c797 303e
000000a0: 513e d63e ad31 8abe 9079 cdbe 015e 51be
000000b0: 1b37 b83e 0201 c43e 3c5f 50be 1fe9 92be
000000c0: 8579 99bd fef1 dfbe eea1 a1be bd6c be3d
000000d0: 2293 54be e94d 88be c31a 3fbf 0711 5ebf
000000e0: 3c6a 1ebe 32ca 3ebf fb6a 2bbf e46a ebbd
000000f0: 6da1 cebe de4e 7dbe 43d2 a5be 757f 24be
00000100: 28f3 8cbe ff18 debd 5f50 e63a 7a93 873c
00000110: 1dfd 173f 132e 003e 79e3 973e 2ae4 943d
00000120: 8b8d dd3d 85f5 553f daed 0a3f d9eb 043f
00000130: fe4a bd3d 71c8 c1be 72fc 05bf 873f 08bf
00000140: e42f c63d d7a2 abbe 4f77 27bf aeac e03d
00000150: e5e1 353e 237d 6cbe f340 bdbe ace5 13bf
00000160: 4640 41bd 44a8 42bd 5ba7 843e b30a 963e
00000170: 42ba d6be 21be 6f3e 7d4b 573d 2678 0b3e
00000180: 0b61 efbd 0ac7 453e 3f66 783e d220 c93e
00000190: 6e43 313f 4e76 ed3e 3687 2c3d fc56 acbd
000001a0: 59bc 8d3e da4c 6e3e b9cd b13d 1711 a2bd
000001b0: d13a b4be de59 93be 00c5 293f 2de4 3a3f
000001c0: a066 333f 4a54 623e 68bb 4a3e 8df7 fe3e
000001d0: 56ad 913e d6d6 6dbe 832a 10be 93d4 95bd
000001e0: 0d96 a83e 225a c93e 0a8e 633d f4a4 323f
000001f0: 2cf2 023e 3310 f33d 37ef b4be e087 483e
00000200: 939f acbe dce2 df3d e51a d5bd a963 8ebe
00000210: 0172 52bf c011 51bf 702d ba3e 3e4b 49bf
00000220: 9094 dabd 0b2e 82be 3f2a b83d 6701 5d3f
00000230: 2eba fbbe 1245 c8bf 419f 95bf 3390 a0be
00000240: d649 98be 3348 ae3e a742 043e 2a82 dbbe
00000250: fe3e 36be 5950 f23c 1200 533e 83ea c2be
00000260: bfee e8be e525 1bbf 0897 10bc 1df1 15be
00000270: 9f9b 04be 89b3 36be 93bb 463e 417e 733f
00000280: dd59 443f fefd 803e 7906 cfbd dc0c 3abf
00000290: f2b2 a7be 21ce edbe 9f3b 063e c6ca cfbd
000002a0: 7742 fabd 1930 acbe ad86 973e c433 2e3f
000002b0: d541 ef3e 903b db3e 5ac5 07be 182a 92be
000002c0: edb6 233c 6315 2bbf 361d ccbe 41fe a5be
000002d0: 9416 8b3e 82fa f1bc ca3d 15bf b8aa 95be
000002e0: bbf8 c0be 4ab5 d9bd 9e4f bbbe bf17 0abf
000002f0: 439c 88bd bc95 3c3e c9dd dfbd 1ff0 b03e
00000300: 2ec3 ad3d 3522 fa3d ffa6 4f3e 6bbd a7be
00000310: a3e5 50be 7041 b63e 5c3a f43c 02b5 6f3e
00000320: fb20 dabe d53b 74be 1926 f7be 9d8b 463e
00000330: fab5 b63d b0ae 973d 8917 8839 4e19 cc3e
00000340: 8fcd 373e 4a97 373e 5e71 f9be c68b 7dbf
00000350: f7db 02bf bc84 ec3e f62d 04be e607 6f3e
00000360: eb30 0dbe 5208 0a3f cf4e 0e3f 6334 d13d
00000370: 8aac 113f c49e a93e 88a7 4abf 9120 7ebf
00000380: 2861 4cbf 9df0 5d3e 8382 8a3e e77d 46bd
00000390: 2f75 ca3e 2eba a83e 7235 103f 462e 0f3a
000003a0: 90d0 c73d b634 293e 1740 033d 8b14 18be
000003b0: 9317 483e c0e1 3ebe 9e0c ba3d cc6e d0be
000003c0: 454c cd3e 352b 553e 418a 893c ffee 583e
000003d0: dffb 7ebe dcb0 b73e 6a07 64bc 8312 123e
000003e0: 6e2a a03e 6296 0f3f 12e4 c43e c8a3 923e
000003f0: a448 2c3e 75e5 6f3e 6e29 a3be 51b7 bb3c

lin_layer_1.bias f4 [75]
0.20917267 -0.26366702 -0.489202 -0.03202248 -0.38674042 -0.025702776 -0.25272304 -0.28006315
-0.081593156 0.8634478 0.16309291 0.07720693 -0.5809775 0.2814218 -0.24595864 0.089229286
-0.26114225 0.2114346 0.16708255 0.38206998 -0.31536573 0.37461492 0.42838606 -0.003886688
-0.3550005 0.35580796 0.047544118 0.27883446 0.23055412 0.36363935 -0.24128053 -0.12434251
-0.035996605 0.30119807 0.16818176 -0.16627845 -0.4760388 0.2779928 -0.046696503 0.11870777
0.36231244 -0.13682473 0.28644297 -0.052449513 -0.33907187 -0.08531723 0.19662514 0.20412882
0.08486626 0.15341689 0.15465379 0.01934754 -0.20365371 0.09181868 -0.8500827 -0.20022158
0.32171485 0.26362112 -0.06875187 -0.0010113623 -0.23844098 0.09172513 -0.35265782 -0.26953915
0.37422568 0.37099192 -0.26626965 0.49804288 0.3370018 0.06392023 -0.21650857 -0.048987467
-0.09036276 -0.35682607 -0.10534487
00000000: 5c31 563e 5dff 86be af78 fabe 012a 03bd
00000010: d702 c6be a18e d2bc ea64 81be 7064 8fbe
00000020: 501a a7bd ea0a 5d3f d401 273e ab1e 9e3d
00000030: f1ba 14bf 8516 903e 95dc 7bbe d8bd b63d
00000040: 70b4 85be 5082 583e b017 2b3e ad9e c33e
00000050: 9e77 a1be 87cd bf3e 6b55 db3e ceb7 7ebb
00000060: a0c2 b5be 762c b63e 9fbd 423d 64c3 8e3e
00000070: 6116 6c3e f02e ba3e 3e12 77be 49a7 febd
00000080: 2d71 13bd a236 9a3e d737 2c3e e644 2abe
00000090: 5cbb f3be 1355 8e3e d544 3fbd 0f1d f33d
000000a0: 0481 b93e c81b 0cbe a7a8 923e 4dd5 56bd
000000b0: d49a adbe cdba aebd 1a58 493e 2507 513e
000000c0: 5dce ad3d 5119 1d3e 905d 1e3e bb7e 9e3c
000000d0: 998a 50be 6f0b bc3d 059f 59bf e306 4dbe
000000e0: cfb7 a43e 59f9 863e c8cd 8cbd b08f 84ba
000000f0: df29 74be 63da bb3d 918f b4be 0901 8abe
00000100: 829a bf3e a7f2 bd3e 7f54 88be 7aff fe3e
00000110: 808b ac3e 9ce8 823d 6cb4 5dbe 15a7 48bd
00000120: 1c10 b9bd e8b1 b6be 0dbf d7bd

lin_layer_2.weight f4 [1, 75]
0.9182002 0.4133085 -0.82864726 0.113759734 0.39711556 0.95714855 -0.19131641 0.15576732
0.5998683 1.9278585 0.76172656 -0.35696524 -1.1400657 0.9254079 0.76263666 -0.057501927
-0.5564492 -0.07222348 -0.857602 -0.20435946 -0.6924812 0.3526102 1.2687641 1.8130442
0.341421 0.9490955 -0.7831648 1.156292 -0.5776707 0.8458324 0.6875236 0.4399376
0.17154147 0.4508099 -0.23970917 0.9975908 -0.6854822 1.1809471 -0.5309146 0.24273476
-0.098321855 -0.6203802 -0.03722466 0.7427786 -0.92573696 0.9206545 1.3141154 1.1107423
-0.11776661 -0.2940507 0.31620765 1.2302399 1.3106765 1.1743094 -1.4133519 0.8179065
1.2563695 1.7623148 -0.08218928 1.0447701 0.2506871 -0.5670759 -1.0570585 0.6676894
1.524072 1.1659304 0.58230454 1.1280445 2.1806457 0.8493981 -0.72304845 -0.6641024
-1.1662028 -0.7133902 1.3423399
00000000: 2b0f 6b3f 2c9d d33e 3a22 54bf ddfa e83d
00000010: bb52 cb3e b007 753f 73e8 43be 7881 1f3e
00000020: f890 193f 11c4 f63f 8300 433f 26c4 b6be
00000030: aced 91bf 88e7 6c3f 283c 433f 2487 6bbd
00000040: 7473 0ebf e7e9 93bd ce8b 5bbf 9b43 51be
00000050: 7346 31bf 5389 b43e dd66 a23f d511 e83f
00000060: bcce ae3e ecf7 723f 7d7d 48bf 6001 943f
00000070: 3ae2 13bf 7988 583f 8c01 303f 803f e13e
00000080: 91a8 2f3e 8ed0 e63e 5276 75be 1c62 7f3f
00000090: c37b 2fbf 4629 973f 05ea 07bf 768f 783e
000000a0: f85c c9bd 3dd1 1ebf e378 18bd bd26 3e3f
000000b0: 19fd 6cbf 03b0 6b3f ef34 a83f ce2c 8e3f
000000c0: 9f2f f1bd d08d 96be f8e5 a13e 8078 9d3f
000000d0: 3fc4 a73f c54f 963f b7e8 b4bf 5262 513f
000000e0: b7d0 a03f 8893 e13f da52 a8bd 07bb 853f
000000f0: 0f5a 803e e32b 11bf b14d 87bf b1ed 2a3f
00000100: cb14 c33f 353d 953f e911 153f c363 903f
00000110: b38f 0b40 2772 593f b419 39bf 9d02 2abf
00000120: 2246 95bf bda0 36bf cbd1 ab3f
