Part4_Neural-Network-for-Collision-Prediction/saved/saved_model.pkl (torch_old, 4866 bytes, 3 tensors)

lin_layer_1.weight f4 [125, 6]
000000 aa bb 77 be 0e 5d 81 bd 44 3e 6a be 38 b9 df be
       -0.24192682 -0.06316577 -0.22875315 -0.43695998
000010 07 6c ef be 56 87 10 3d 3f 89 1c 3f 1b 2a fe 3e
       -0.46762106 0.035285316 0.6114692 0.496415
000020 0e 96 57 3e d1 8a e0 3d d4 e7 86 3e 32 a3 9e be
       0.21053335 0.10963977 0.26348746 -0.30983883
000030 6c 15 8f 3e c0 fa 5b 3e 54 10 6f bd d6 11 57 be
       0.2794603 0.21482372 -0.05836518 -0.21002898
000040 d3 11 ca 3e 0a 97 a0 be 8b 5a 3c 3e ab 5a 08 be
       0.39466724 -0.31365234 0.18393914 -0.13315837
000050 a3 b0 e4 be 11 f3 0f 3e bd 57 85 be bb 1b aa bd
       -0.44666013 0.14057566 -0.26043501 -0.083060704
000060 39 cb 1a be a6 bd 2b 3e 0e 6c 95 3d 3f d7 30 be
       -0.15116586 0.16771564 0.072960004 -0.1726961
000070 cb 08 ba be 13 18 9e be 7b 45 0d bc ff cd f4 3e
       -0.36334834 -0.30877742 -0.0086225225 0.47813413
000080 ae e9 01 3f f2 b9 e5 3c da db 14 3e ab f4 c8 3e
       0.5074719 0.028042767 0.14536992 0.39249167
000090 30 cd b7 3e 57 be 89 3e e8 85 0e be 39 e5 91 be
       0.35898733 0.2690303 -0.13918269 -0.28495196
0000a0 31 6b a2 3e 63 81 08 be 06 65 2d 3e df 15 d7 be
       0.31722406 -0.13330607 0.16933069 -0.42008874
0000b0 c1 cb 1f 3e 0f e0 ec 3c 89 c3 df be dd b7 61 be
       0.1560507 0.028915433 -0.4370387 -0.22042795
0000c0 24 d4 39 3e 9f 71 0f 3e 2c c9 33 be d4 0a d1 3e
       0.18147331 0.14008187 -0.1755721 0.40828574
0000d0 77 e3 04 3d 1f 31 ef 3d 63 a6 a2 be 2b 29 8a bd
       0.03244349 0.11679291 -0.31767568 -0.067461334
0000e0 8a e1 ae be b1 cb 22 bf 9a 13 af bd 49 c2 44 be
       -0.34156448 -0.6359206 -0.085486606 -0.19214739
0000f0 8b c2 05 3d ff 84 e1 be 30 b5 9b 3e db 4b 50 be
       0.032656234 -0.4404678 0.30411673 -0.20341437
000100 08 47 80 be d0 96 91 3e e9 41 bb be 35 30 82 3e
       -0.25054193 0.28435373 -0.36573723 0.25427404
000110 77 81 70 bd 3e 20 ea be 89 e1 c7 be f9 76 11 bd
       -0.058717217 -0.45727724 -0.39039257 -0.03551385
000120 07 0b 7b 3e f3 e6 cf bd 56 1d 99 be 96 1e f9 be
       0.24515925 -0.10151472 -0.29905194 -0.48656148
000130 2b 91 35 3e 1d 56 87 be 8e af 78 be 7a ed bb be
       0.17731158 -0.26432887 -0.24285719 -0.36704618
000140 1b 4c b8 3d fa b5 1c 3e 4a 44 12 3d b5 a7 c3 3e
       0.08998891 0.15303794 0.035709657 0.38213888
000150 93 18 df 3e e7 1e b4 3e 1f 9b cd bb 6b d7 15 be
       0.43573436 0.35179827 -0.0062745954 -0.14632957
000160 bf e9 69 3e 45 55 9d 3e e7 94 8a 3e d8 73 00 3f
       0.22843073 0.30729118 0.27066728 0.50176764
000170 0f 53 13 3f 45 2d d5 3e 66 60 54 be 8c c0 08 be
       0.5754861 0.416361 -0.20739898 -0.13354701
000180 10 92 ed 3e 56 06 f0 3b 35 3b b2 3e 8c aa 40 be
       0.464005 0.007324974 0.34810796 -0.18815058
000190 33 63 ac 3e 38 c4 64 bd 26 de 9d 3e 9c 26 1f 3f
       0.33669433 -0.05585119 0.30833548 0.6216829
0001a0 98 fd 0d 3f 30 f6 13 3f 77 47 10 3c b1 59 8f be
       0.5546508 0.5779753 0.008806101 -0.27998117
0001b0 f9 c4 c9 be a2 9f 30 bf af a4 00 bf cb fc 9b bd
       -0.3940809 -0.6899358 -0.5025129 -0.07616576
0001c0 8b fd c3 be f9 f3 66 3e 5c 63 b5 be 54 c1 7d 3e
       -0.38279375 0.22554006 -0.35427368 0.2478078
0001d0 75 3a 31 bd 46 e9 0c 3e aa c4 a3 3e 55 b1 4e 3d
       -0.04326864 0.13760862 0.3198598 0.050462086
0001e0 9e 9c 33 3d 6c f2 91 be 93 c6 05 bf 33 9a a7 be
       0.043850534 -0.28505266 -0.52256125 -0.32734832
0001f0 a1 1d a7 be e2 30 bb 3b 61 6e 91 3e 12 60 a7 3e
       -0.32639793 0.0057126144 0.28404525 0.32690483
000200 7a 66 95 be 0c 10 74 3e 69 b0 19 bd 94 e6 2a be
       -0.29179746 0.23834246 -0.037521753 -0.16689521
000210 f7 20 aa be 4b 6a 8b 3c 18 b0 84 be f3 c6 84 bd
       -0.33228275 0.017018458 -0.259156 -0.06483259
000220 87 9c 24 3d 8d 6f 92 3d ef bd 36 3d 5d 36 65 3d
       0.04018834 0.07150183 0.04461473 0.055960048
000230 29 4e 48 3e 80 9a a1 be ec 19 00 bf d4 0c 20 be
       0.19561066 -0.31563187 -0.50039554 -0.15629894
000240 57 6a 29 bf e8 45 4a bf 59 d6 fa be d8 5a 65 3e
       -0.66177887 -0.7901292 -0.4899166 0.22397935
000250 c5 f4 ee bd 65 ae 7e be 5c 2d 83 3e dc 1f fa be
       -0.1166778 -0.24871214 0.25620544 -0.48852432
000260 b3 f4 e2 3b 7d 00 3e be 21 50 b2 be d6 80 9d 3d
       0.006926143 -0.18554874 -0.34826759 0.07690589
000270 0b a7 f7 be c9 dd 90 be ae f9 35 be 01 ae 15 be
       -0.4836963 -0.2829421 -0.17771026 -0.14617158
000280 fa 50 15 bf 99 39 8e bd 1c 9e 61 be f9 db e8 be
       -0.58326685 -0.0694458 -0.2203297 -0.45480326
000290 93 09 81 3e 59 6a 2a be 2d a0 07 3e fe 6d 6c be
       0.25202617 -0.16642131 0.13244696 -0.23088834
0002a0 f0 80 10 3e 4f be 94 3e f3 51 10 3e 5a 99 10 3f
       0.14111686 0.29051444 0.14093761 0.56483996
0002b0 ed 28 bf 3e 79 ec 0f 3e 73 e4 f3 3c 6b de b7 bc
       0.3733591 0.14055051 0.029772019 -0.022444924
0002c0 81 41 ea 3e cb 88 c8 3e 3e 89 26 be b8 e3 c2 bd
       0.457531 0.39166865 -0.16263291 -0.0951609
0002d0 04 62 bd 3e 61 1e 87 3d 38 fb 0a 3d 25 14 33 3d
       0.36988842 0.06597591 0.033930987 0.043720383
0002e0 b2 8f 9d be 99 ef 34 3d 34 6b 89 bd de 89 36 3e
       -0.30773693 0.04417381 -0.067099005 0.1782603
0002f0 68 ee f9 3e ee 24 4d be cd f0 09 3f a9 0a 9f be
       0.48814702 -0.20033619 0.5388306 -0.3106282
000300 5c 3e ab be d2 27 e6 bd f0 06 aa 3e d4 71 55 3e
       -0.33446014 -0.11238064 0.33208418 0.20844203
000310 03 e4 79 bd 39 60 83 be c1 e8 6c 3e 61 fb 9c 3e
       -0.061008465 -0.2565935 0.23135664 0.30660537
000320 94 73 f0 3e 70 38 1b 3e b0 dd b2 3c b1 44 9a 3d
       0.4696318 0.15158248 0.021834224 0.07532633
000330 3a 74 e5 be bd e4 ca 3d 2e 86 52 be 4f 5e 85 3e
       -0.44815236 0.099069096 -0.20558998 0.26048514
000340 c0 e2 82 be 6f d5 5c be 82 52 d2 be 32 90 e3 be
       -0.25563622 -0.21565793 -0.41078573 -0.4444595
000350 ac 14 0d bf 1e e2 ca be d3 bb c5 bc 36 fa b9 3d
       -0.5510967 -0.3962564 -0.024137413 0.09080927
000360 a4 33 db 3e 4e f2 a4 3e e1 80 cf 3e ba e7 78 bd
       0.42812836 0.32216114 0.40528014 -0.060767867
000370 9e b8 50 be 3e 22 fd bd 74 81 f3 3e de f0 98 3e
       -0.20382926 -0.12360047 0.47559702 0.29871267
000380 ce b9 f3 3e 61 2a 84 bd d5 e7 ab bd 97 0e 06 be
       0.47602695 -0.06453396 -0.08393828 -0.13091503
000390 7a 2f 17 bf 52 4f 2e bf 59 51 7f be 6c 06 39 be
       -0.5905682 -0.68089783 -0.24933375 -0.18068856
0003a0 63 ca 80 be fa 55 31 3d eb 3e b0 3b 33 a2 40 3d
       -0.2515441 0.043294884 0.005378594 0.047029685
0003b0 3f 94 e5 3e 43 3e f4 3d 45 62 61 be e7 44 d6 3d
       0.44839665 0.11925938 -0.22010143 0.10462361
0003c0 9f 8a c8 bd 0c 86 fd 3d 11 f4 ca bc c0 8b 84 be
       -0.09792065 0.12379083 -0.024774583 -0.2588787
0003d0 f0 c5 39 3d 15 6f a5 3e 1a 6e 22 3d 79 73 e9 3e
       0.045354784 0.3231131 0.039655782 0.4559591
0003e0 0e 4e 4a 3d d9 36 d3 3e 5c 1f 00 3f 35 54 80 be
       0.049390845 0.41252783 0.5004785 -0.25064245
0003f0 09 09 a0 3e 52 90 7c 3e e8 81 1e 3e cf df 3b be
       0.31256893 0.24664429 0.15479243 -0.18347095

lin_layer_1.bias f4 [125]
000000 45 03 26 be da 3a 15 bd 00 e2 73 3e c2 c1 ad 3e
       -0.16212185 -0.03643308 0.23816681 0.33936888
000010 16 9c 91 3d a0 4b 8d be fc 02 53 be d8 05 11 be
       0.07109849 -0.2759676 -0.20606607 -0.14162385
000020 88 4c d9 3d 11 68 1e 3e 32 a4 b1 be 2a 18 72 be
       0.106103 0.15469386 -0.34695584 -0.2364203
000030 f7 9a 5a 3e c6 42 a8 3e 2e ad a6 be 26 d8 51 3d
       0.21348177 0.32863444 -0.32554 0.051231526
000040 b6 01 fd bc 64 ce ff be 5b c9 e5 3e f1 04 01 3e
       -0.030884605 -0.4996215 0.44880185 0.12599541
000050 3c 6b a3 3d 1d 34 63 be 93 c9 04 3e 04 b2 85 be
       0.07979438 -0.22187848 0.1296752 -0.26112378
000060 a3 8e af 3e ab 7f 32 3e b8 62 ce 3e 9b 7c c8 be
       0.3428851 0.17431514 0.4030969 -0.39157566
000070 26 99 b0 be 26 8e a0 3d fd 17 b2 3e 05 bd 11 3e
       -0.34491843 0.07839613 0.34783927 0.14232261
000080 a5 aa 90 be 47 46 f5 bd 68 78 b6 3e 1f 03 0a 3e
       -0.2825519 -0.11976295 0.35638738 0.13477753
000090 e9 5b 84 be 78 25 42 3d 6c 69 a3 3e c2 9c 28 3e
       -0.25851372 0.047399014 0.31916368 0.16466048
0000a0 f1 39 92 3e 17 11 32 3e 8f 6b af 3e e8 b2 bf be
       0.2855983 0.17389332 0.34261748 -0.37441182
0000b0 d7 c3 50 be 9c 6f d0 bd 38 e1 ee be 3b 17 44 3e
       -0.20387207 -0.10177538 -0.46656203 0.19149487
0000c0 6b 78 40 bd 61 61 b2 3e 38 8d 72 be cd 40 f0 bd
       -0.04698984 0.3483992 -0.23686683 -0.1173111
0000d0 cd 48 c3 3e 3f fb 81 3e ab 68 d6 be 1c 0b 00 3e
       0.3814148 0.25386998 -0.4187673 0.12504238
0000e0 99 cf f9 3c 75 90 9c 3e 03 de 34 3f 75 b1 6a 3e
       0.030494498 0.30578962 0.70651263 0.22919257
0000f0 f8 fa 9e be 72 eb b4 bd d6 92 93 be 0f d3 05 3e
       -0.3105085 -0.0883397 -0.28822964 0.13068794
000100 38 81 f8 3e 6f b0 ad 3e 8f 0b 1e 3d b8 01 16 bc
       0.48536086 0.3392367 0.038585242 -0.009155683
000110 26 36 a1 3c 31 70 c3 be 75 72 a4 3d 8a 1b 4a be
       0.01967914 -0.38171533 0.080296434 -0.19737068
000120 9e 1a a9 3e 83 eb 0b be bc 39 c5 be 49 2e bb 3e
       0.3302812 -0.1366406 -0.3852061 0.3655875
000130 da 15 15 3e 5c e2 4a 3e c4 8e b5 3e b8 ec 9a 3e
       0.14559117 0.19812912 0.35460484 0.30258727
000140 c3 00 25 3f 1c 1f 8c 3d 3d d9 02 bf 23 ac b5 be
       0.6445429 0.06841871 -0.5111273 -0.35482892
000150 0a 19 73 be ef e4 d2 be c1 b8 53 3e 06 a6 0e 3e
       -0.2374002 -0.41190287 0.20675947 0.1393052
000160 82 55 3c be d5 52 02 3e e7 16 90 3e b7 38 51 be
       -0.18391994 0.1272691 0.28142473 -0.20431791
000170 33 29 7d 3e c5 b0 9c bd 7a de 8a 3e 95 b2 49 be
       0.24722748 -0.076509036 0.2712286 -0.1969703
000180 cf 28 bb 3e 41 ef 93 bd a5 70 55 3d 34 94 98 be
       0.36554572 -0.072233684 0.05210938 -0.2980057
000190 be 75 6e bb b6 24 3f 3e 17 e0 7c 3e 69 9c 94 3d
       -0.0036386098 0.18666348 0.24694858 0.07256395
0001a0 e1 fb 06 3f e6 79 39 3d a4 27 3f bc e9 07 92 3e
       0.52728087 0.045282267 -0.011667166 0.2852166
0001b0 43 a2 8c 3e c9 a8 28 3d 49 6c 2a bd 2e ca 74 bd
       0.27467546 0.04117659 -0.041607175 -0.059763126
0001c0 aa 8c 75 3d 27 da 81 bc 52 f5 8a 3e 48 5a b3 3e
       0.0599486 -0.015851093 0.2714029 0.35029817
0001d0 ea 46 49 bd 6e 4d c9 3c a6 87 68 be c6 af 6c be
       -0.049139895 0.024573054 -0.22707996 -0.23113927
0001e0 cb 03 ed 3d b5 2d b2 3e ce 83 47 3e 0b b3 fc ba
       0.11572989 0.34800497 0.19483873 -0.0019279433
0001f0 62 dc 1e be
       -0.15513757

lin_layer_2.weight f4 [1, 125]
000000 a5 da 3b 3f 30 0f 38 bf 22 02 fb bd 62 5b 83 3e
       0.733805 -0.71898174 -0.12256266 0.25655657
000010 0a da 83 3e 9f 5d ea be eb dc de bd 2b fd a4 3e
       0.25752288 -0.45774552 -0.108819805 0.32224402
000020 d4 65 8e be 3f 30 4a 3f c2 de ad 3e 5f 48 01 3f
       -0.27812064 0.7897987 0.33959013 0.50501055
000030 b5 37 aa 3e aa e0 03 3e 3a f0 8d be 1a 2a 44 bf
       0.33245626 0.12878671 -0.2772234 -0.7662674
000040 ea d2 88 be c9 c3 7f bf 1d 40 80 3f 34 4e aa bd
       -0.26723415 -0.9990812 1.0019566 -0.08315697
000050 49 01 3e 3f 8d 82 48 be 62 ff 93 3e 1e 8a b1 3e
       0.7422071 -0.19581051 0.2890578 0.34675688
000060 72 51 74 3f 44 7d d4 3e 17 1e 58 3f 94 45 a8 3e
       0.95436776 0.4150182 0.84420913 0.32865584
000070 31 70 33 bf f1 3a 7b be 3a f1 20 bd 0e 6b 95 be
       -0.70093066 -0.24534203 -0.03929255 -0.2918324
000080 d4 be 12 3d 76 3e ef be 22 f5 5c 3e fc 18 85 3f
       0.03582652 -0.4672734 0.21577886 1.039825
000090 66 4d 82 be 48 03 d5 be c9 a1 8b 3f ab 23 b2 bd
       -0.25449675 -0.41604066 1.0908748 -0.086982094
0000a0 72 68 49 3e 47 be 1b bf a6 45 ea bc f1 2e d7 3e
       0.19668749 -0.60837215 -0.028597664 0.42028
0000b0 d0 9e 04 be 45 16 b8 bd f5 71 11 bf 6b e9 f1 be
       -0.12951207 -0.089886226 -0.5681451 -0.47248396
0000c0 b6 29 b9 3b 42 4e 28 3e 80 93 69 bc 7b 91 a3 be
       0.0056507243 0.16436103 -0.014256358 -0.3194693
0000d0 e5 d0 62 3f d0 12 c2 bd c8 c1 84 bf e2 33 21 3f
       0.886 -0.094762444 -1.0371637 0.6296979
0000e0 42 c4 34 be 57 5e c7 be 87 71 be 3f de 94 95 3f
       -0.17652991 -0.38939163 1.4878396 1.1686056
0000f0 03 a2 cb be f6 bd a0 3e fe 6e ff 3e bd 93 f6 3e
       -0.39772043 0.3139493 0.49889368 0.4815959
000100 9a 35 9e 3f db fd 94 3e a4 ef 15 bd 24 a3 5c 3f
       1.2360108 0.29099926 -0.036605492 0.8618643
000110 7b ab 00 3f bd ea 5f bd 92 d4 c7 3e 93 f6 40 3f
       0.5026166 -0.054667223 0.39029366 0.7537624
000120 f2 ac 58 3f e5 f2 5b bf 66 06 8c be 05 70 0f 3f
       0.84638894 -0.859175 -0.27348632 0.56030303
000130 cf 61 03 3f 7a 63 15 3f 6a b1 cf be de 4c e1 be
       0.5132112 0.58354914 -0.40565044 -0.44003958
000140 bf 11 97 3f dc 66 a6 be 61 ad 6a bf be f7 73 3d
       1.1802291 -0.3250035 -0.91670805 0.059562437
000150 31 88 0a 3f ff f3 4d bf d1 30 98 be 24 0c 3a 3f
       0.5411406 -0.80450433 -0.29724744 0.72674775
000160 42 1f 64 3e 2a 2b 11 3f 2b a6 34 3f 62 1c 18 bf
       0.22277549 0.5670649 0.7056605 -0.5941831
000170 67 9e 12 3f 1d 5d 5e 3f 3d d7 99 3e 79 37 2a bf
       0.5727295 0.8686083 0.30047026 -0.66490895
000180 4a 2a a0 3e 44 ed 0c 3f 84 93 c2 bd 5e db 63 3e
       0.31282264 0.5504954 -0.095007926 0.2225165
000190 a9 5e ff be 06 2d cb 3e e9 1e d3 3b 18 11 dc 3e
       -0.49876907 0.39682788 0.0064428938 0.42981791
0001a0 67 39 84 3f d3 aa d3 3e e8 3e 65 3f c7 f3 d9 3d
       1.0330018 0.41341266 0.8954911 0.106422
0001b0 aa a2 45 be 7b 87 fc 3e 49 78 06 3d 12 be 46 bf
       -0.19300333 0.49322113 0.032829557 -0.77633774
0001c0 89 bf 82 3f 66 78 a0 3e c8 3d 07 3f a9 f1 50 3f
       1.0214702 0.31341857 0.52828646 0.81618744
0001d0 f4 0b c8 3e f0 66 9b be ef a1 a6 3e 20 63 ca be
       0.3907162 -0.30351973 0.3254542 -0.3952875
0001e0 83 6e f5 be e6 a3 26 3f a8 6f 54 3f 8b 12 77 be
       -0.47935876 0.6509384 0.82982874 -0.24128167
0001f0 68 ba 3b 3f
       0.7333131
