Part4_Neural-Network-for-Collision-Prediction/saved/saved_model.pkl (torch_old, 16872 bytes, 3 tensors)

lin_layer_1.weight f4 [500, 6]
000000 ac 7f 1b be 31 b7 a1 be 71 4c 14 bd 83 61 63 3e
       -0.15185422 -0.31585076 -0.036205713 0.22205167
000010 46 c8 fa 3d bf 72 1a 3e b1 81 aa be 16 fc b6 be
       0.122452304 0.15082835 -0.33302072 -0.357392
000020 90 aa 8c 3d a0 82 dd be bf cc 6d 3d 93 b4 2c be
       0.0686847 -0.4326372 0.05805659 -0.16865759
000030 1b af 61 bd 14 30 b2 be 7b 06 8c 3e e5 81 13 be
       -0.055098634 -0.34802306 0.27348694 -0.1440502
000040 15 93 52 be 24 d4 c7 3e d4 ef 88 bd 63 74 34 3e
       -0.2056392 0.39029038 -0.066863686 0.17622523
000050 ab b3 c0 be 6e ab c3 be 10 1f a4 be 19 13 a5 3d
       -0.37637076 -0.38216728 -0.3205495 0.08060283
000060 e1 bd 6c be c2 27 03 3d 8e f5 68 be 36 6e 94 be
       -0.23119308 0.032020338 -0.22749922 -0.28990334
000070 6b c1 34 bd 7e 0a a6 3e a3 66 4b 3d 72 46 aa 3d
       -0.04412977 0.3242988 0.04965843 0.083142176
000080 17 75 7b 3e 2e 89 8d 3e df 1c d8 3e 8d 10 9d be
       0.24556385 0.27643722 0.42209527 -0.3067669
000090 c4 af 63 3e 27 c9 a5 3e 35 aa bd be 5a c9 8f be
       0.22235018 0.3238003 -0.3704392 -0.28083307
0000a0 36 1e 75 be a3 8a 3e 3e 1f 9f c5 3d 0a 02 8e 3e
       -0.23937306 0.18607573 0.096494906 0.2773593
0000b0 4f 97 97 bd 8c d1 a7 3c b4 0a ba 3e dd 18 97 be
       -0.07401907 0.020485662 0.3633629 -0.29511157
0000c0 fa 8e 6c 3e 07 52 ce 3e 88 a4 71 3e 28 88 d9 bd
       0.23101416 0.40296957 0.2359792 -0.10621673
0000d0 8a 5d f6 3d 31 b7 f1 3d 7d 57 c5 be 4e ec a1 3d
       0.1202956 0.11802519 -0.3854331 0.079064
0000e0 0e fc 63 be ec 47 03 3e cb 54 b0 3e 71 1b 2b 3e
       -0.2226412 0.12820405 0.34439692 0.16709687
0000f0 de 3e 9a 3e d3 64 1e 3e 10 c4 bd be 50 81 6c 3e
       0.3012609 0.15468149 -0.37063646 0.23096204
000100 ce aa a5 bc 8b 1f cb be 2b 45 5a be 96 c9 3d 3e
       -0.020223048 -0.39672503 -0.21315448 0.1853393
000110 5c 9b 65 3d 7a 3e 55 be 9a e7 f3 bd 37 3e a5 3e
       0.056056365 -0.20824614 -0.11909409 0.3227403
000120 d8 04 0c be cd 25 85 3e d4 14 c8 be 00 72 b6 3e
       -0.13673723 0.26005402 -0.3907839 0.3563385
000130 a5 66 40 3e fd 94 c0 3e ee 08 84 3e 5b 97 90 bd
       0.18789156 0.3761367 0.25788063 -0.07060119
000140 7e 24 ba 3e a3 cd 6d be ef 67 85 3e db 73 e4 bd
       0.36355966 -0.23222975 0.26055858 -0.1115491
000150 d8 e0 f6 bd 49 72 b6 be 8a 1a a4 be c2 0f a7 3e
       -0.12054604 -0.35634068 -0.32051498 0.3262921
000160 74 84 d3 be e3 ec a3 3e f2 42 ad 3e e9 87 98 be
       -0.4131199 0.32016668 0.33840138 -0.2979119
000170 51 c9 ef 3d 0d 4c d4 3c 3f 12 95 3e de ba 3b 3e
       0.1170832 0.02591517 0.29115483 0.18333003
000180 b2 70 18 be 83 87 87 be fa 0f a6 bd 6c 74 3f 3e
       -0.1488674 -0.26470575 -0.08108516 0.18696755
000190 d7 6d 46 3e ea 8f 89 3e d1 df 4c bd 0f 19 8a be
       0.19377838 0.2686761 -0.050018135 -0.26972243
0001a0 ef 1b ed bd 39 8d 6c 3d d4 da b1 be 7a 33 87 3e
       -0.115775935 0.057751868 -0.34737265 0.2640646
0001b0 ba 22 0a 3e 47 ae 8b 3e e2 26 5b 3e 7e f7 f1 39
       0.1348981 0.272814 0.21401551 0.00046151498
0001c0 a0 1f 1e be 73 a1 ff bd 74 06 2e 3e 6c cc 0b 3c
       -0.15441751 -0.12481966 0.16994649 0.008532625
0001d0 de 74 5e 3b 6e f7 b8 3e a9 5f 38 3e 7f 2d ce 3d
       0.003394417 0.36126274 0.18005241 0.100672714
0001e0 52 fc 98 3d fe 01 45 3e ed c8 8f 3e ac c5 74 be
       0.07470001 0.19239041 0.28082982 -0.23903531
0001f0 5e 31 15 3e 99 af c9 bc 73 74 e5 bd 2c a6 a2 3e
       0.14569613 -0.024619864 -0.112038516 0.31767404
000200 0f 04 3b be 27 aa 89 be ce 8e 11 be c8 aa 22 3e
       -0.18263267 -0.26887628 -0.14214632 0.1588546
000210 b0 56 bc 3d db d5 e7 bc 7d ab 8c be 13 77 00 be
       0.09196222 -0.028300216 -0.27474585 -0.12545423
000220 56 78 5d 3e 2a 4e 2b 3e 56 c4 de bd b1 33 25 3e
       0.21627936 0.16729036 -0.10877292 0.16133
000230 c6 e1 e7 bd 7e e9 9b bd 40 95 a0 3e 7c 73 09 3d
       -0.1132236 -0.076128945 0.3136387 0.0335574
000240 bc cc d4 3e 5a a4 f6 3c cc 65 af 3e 7e a2 b4 be
       0.4156245 0.030107666 0.34257352 -0.35280222
000250 25 e3 45 3c 43 91 c9 be df c8 80 be f0 bf a5 3d
       0.012078081 -0.39368638 -0.25153252 0.0809325
000260 98 9b 82 be 1d ba 43 be 00 1f b0 3e fc 30 9e be
       -0.25509334 -0.19113965 0.3439865 -0.30896747
000270 33 48 c1 3e 49 e9 67 be e1 10 32 bd 48 a8 09 3e
       0.37750396 -0.22647585 -0.04347313 0.134431
000280 07 b5 ef 3d 1d 8b 63 bb e0 e3 a3 be ea 1a 71 be
       0.1170445 -0.003472037 -0.32009792 -0.23545423
000290 66 db 8e 3e 21 7c 92 3e 1d d2 ed 3c 20 59 bb be
       0.27901763 0.28610328 0.029030854 -0.36591434
0002a0 f8 ac 7f 3e f7 9c 59 be fb 79 a1 3c fd 03 e4 bd
       0.24968326 -0.21251284 0.019711485 -0.11133573
0002b0 40 bf 08 3e 16 e0 2e 3d 9a 69 82 3d 29 5d cd 3e
       0.13354206 0.042694174 0.06367798 0.40110138
0002c0 93 26 84 be 61 d2 a0 be 84 44 8e be b1 9a 62 3e
       -0.2581068 -0.31410506 -0.27786648 0.22129323
0002d0 4e 3e 1a 3d 03 8f 4d be 77 bd 83 be 40 cb ff bd
       0.037657075 -0.20074086 -0.25730488 -0.12489939
0002e0 8d b4 4c 3e 31 0b a3 3e 79 05 24 3e 3e 08 a5 bc
       0.1999075 0.31844476 0.16017713 -0.020145532
0002f0 77 82 ca 3e c4 db 46 be 80 26 d6 3d 9f 5e b1 3e
       0.39552662 -0.19419771 0.10456562 0.34642503
000300 9c 45 5e 3e ac 2e fb 3c 7a b3 d2 3d a7 ba 21 3e
       0.21706241 0.030661903 0.10288139 0.15793858
000310 37 99 3b 3e 3b 7b c1 be bd e6 7c 3e 48 60 33 be
       0.18320166 -0.3778933 0.24697395 -0.17517197
000320 e9 e8 8e 3e bf ad 5f be a2 36 be bd 53 bd 88 3e
       0.2791207 -0.21843623 -0.09287764 0.26706943
000330 e9 0c 02 3c b1 d8 81 be 71 b6 aa be 8e 84 b4 be
       0.007937648 -0.25360635 -0.33342317 -0.3525738
000340 bd 56 9b be 98 dc 4b be d8 e4 db 3d 1c f5 aa bc
       -0.30339614 -0.19908369 0.10737008 -0.02086883
000350 7d 2e a2 bc 2b 86 cd 3d 40 2f 8c 3e 6c b8 b5 bd
       -0.019797558 0.10035356 0.273798 -0.08873066
000360 52 eb 0f 3e 5f 8b 4f 3d 89 bd ed 3d 4e db 4a bd
       0.14054611 0.050670024 0.116084166 -0.04952555
000370 2e fd 8b be c4 f0 36 3e 91 db 64 be 61 46 be 3e
       -0.27341598 0.17865282 -0.22349383 0.3716307
000380 66 5d 8a be c4 c5 90 be 4c f5 99 3e 35 45 1f be
       -0.27024382 -0.28275883 0.3006996 -0.15553744
000390 18 0e 49 bd 02 34 bb 3e 5b e3 ab 3e 32 44 55 3e
       -0.049085706 0.36563116 0.33571896 0.20826796
0003a0 78 bd 24 3e b5 25 db ba f1 05 02 be ca 86 bf bd
       0.16087902 -0.0016719612 -0.12697579 -0.09351881
0003b0 a2 5f 13 be 0c 67 be 3e 81 a1 74 be 1c c1 8e be
       -0.1439195 0.37187994 -0.23889734 -0.27881706
0003c0 44 8c 56 be db ea 5b bd f1 d7 c3 be 97 9a 0d be
       -0.20951945 -0.053690773 -0.38250688 -0.13828503
0003d0 83 2c c9 3e 11 4f 5e bc 2c 03 b4 3d 74 29 9f be
       0.39291772 -0.013568656 0.087896675 -0.31086314
0003e0 9d 05 76 be 0e 8e 29 3e 02 18 df be 4a 9b 1d be
       -0.24025579 0.16558096 -0.43573004 -0.1539127
0003f0 fe dd 8b 3d b5 69 1c 3e 33 52 90 3d 01 23 57 3d
       0.06829451 0.15274699 0.07046928 0.052523617

lin_layer_1.bias f4 [500]
000000 7e d2 fb 3d 26 6d c7 bd 29 b2 14 3e 36 cd b0 bd
       0.122960076 -0.09737615 0.14521088 -0.08632891
000010 84 5a 2d be b6 87 67 3e b9 b7 88 3d d2 90 b6 be
       -0.1692906 0.22610363 0.06675667 -0.35657364
000020 6f 84 bc be 1b a5 9f 3d cb 54 53 3d 82 9e 3f 3d
       -0.3681979 0.07795163 0.051594537 0.046782024
000030 22 fc 9d be d1 7f a0 3e de 06 d1 bd 75 94 cb be
       -0.30856425 0.31347516 -0.10206388 -0.397617
000040 8b 88 88 3d 30 39 b4 be 7d 6b 60 be 65 cb 26 bd
       0.066666685 -0.3519988 -0.21916004 -0.040721316
000050 25 1f 0f 3e 4c fb 1e 3e 6a 87 ad 3e 78 d1 06 be
       0.13976724 0.1552555 0.33892375 -0.13165843
000060 d1 47 60 3e 53 55 33 3e bb e5 a6 be 15 50 ae be
       0.21902396 0.17513017 -0.32597145 -0.34045473
000070 71 01 b1 be b4 50 62 be e0 30 7e bc 82 a4 74 3e
       -0.34571412 -0.22101098 -0.015514582 0.2389088
000080 67 35 5f be cf 93 51 be c8 ed 21 3e b9 bc 8b 3e
       -0.21797715 -0.20466541 0.15813363 0.2729242
000090 7d 20 ca be 74 2f d4 bd bf de cf 3c 7d ce 0f be
       -0.39477912 -0.103606135 0.025374768 -0.14043613
0000a0 e1 a1 cd bd aa 84 69 3d 12 39 a3 3c 0c 60 9b 3e
       -0.100406416 0.057011284 0.019924674 0.30346715
0000b0 6f 4a 8d be 86 d3 84 be 65 2c 9a 3e e8 2a cb be
       -0.2759585 -0.2594263 0.30111995 -0.39681172
0000c0 70 2e 42 3e b2 5c d1 be 4d 96 06 be c1 fb c8 3e
       0.18963027 -0.40891033 -0.13143273 0.39254573
0000d0 47 bc 83 3e dd 24 3f 3d bc b3 93 3e 0c 9c 7c be
       0.25729582 0.046666015 0.28848064 -0.24668902
0000e0 02 ae cd be cc 1f 09 3e 8e b6 b4 be 84 00 bd be
       -0.4017182 0.13391036 -0.35295528 -0.36914456
0000f0 36 24 ec bd 9b 6c e2 3b e0 94 a4 bd 86 07 b8 be
       -0.11530344 0.0069099194 -0.08036208 -0.3594324
000100 73 30 5b bd e7 07 a9 3e d2 fc 92 3e f1 aa 2d bd
       -0.053513 0.33013842 0.28708512 -0.04239935
000110 32 a3 bf bd 8f 18 f6 3d 63 0b cf 3e 35 d5 5e 3e
       -0.09357299 0.12016403 0.40438375 0.2176102
000120 93 dc 1a 3e f3 51 84 3e 49 15 3b 3e cd eb 29 3e
       0.15123205 0.25843772 0.18269838 0.16593857
000130 4b 37 36 3e c5 d5 11 3e a3 08 a3 be 1b ea 35 3e
       0.1779453 0.14241703 -0.31842527 0.17765085
000140 5c db 31 3d 66 dd ba be 2f 30 a6 bd f1 22 c9 3e
       0.043422088 -0.3649704 -0.08114659 0.3928447
000150 8b 3c ae bd 5d 79 12 3e 8f eb f1 bd 41 3e 39 3e
       -0.085076414 0.14304109 -0.11812507 0.18090154
000160 af a0 ad be 4e 95 f2 bc 65 45 28 3e 26 6f 7e be
       -0.33911654 -0.02961221 0.16432722 -0.24847087
000170 17 9d e3 3c 56 2e 9f 3e f7 91 84 3e 12 6b be be
       0.027784867 0.3109004 0.25892612 -0.37191063
000180 1e d8 2e be 5e 74 c8 bd 51 ea 69 3c ac a8 9e be
       -0.1707463 -0.0978782 0.014277057 -0.3098806
000190 88 a6 10 be 02 9d 36 be fa 83 b8 be 4e ea 95 3d
       -0.14126027 -0.17833331 -0.3603819 0.07320081
0001a0 44 61 df 3c 56 fd 93 be 11 24 b1 3e cf 61 4e 3e
       0.02726806 -0.28904217 0.3459783 0.20154499
0001b0 18 14 1a be bf 60 fe bd 37 f6 6d be 4a da 84 3d
       -0.15046728 -0.124207966 -0.23238455 0.06486948
0001c0 e9 1b ce be c3 80 4d 3e 16 69 da 3c a0 fb 43 3e
       -0.4025567 0.2006865 0.026661437 0.19138956
0001d0 98 69 76 be 84 07 96 3c f6 fe 10 bd e3 4d 83 bd
       -0.24063718 0.01831413 -0.0353994 -0.0641134
0001e0 3b d3 6b 3d aa 4b 02 be bd 3b c5 3e 7b cb 34 3e
       0.057574492 -0.12724176 0.3852214 0.17655747
0001f0 ab 5b c0 be ea 0c cc 3e 2a 84 b0 3d 1e b3 87 3e
       -0.37569937 0.39853603 0.08618958 0.26503843
000200 a1 8c 1c 3e a9 bb 61 be fe 9d 48 3c 51 b1 a5 3e
       0.1528802 -0.22044243 0.0122446995 0.32361844
000210 9c 64 33 3e 4d 4e c9 be 4c a8 5e be 05 14 1a be
       0.17518848 -0.3931755 -0.21743888 -0.150467
000220 15 79 aa bb 79 b8 d1 3e 09 88 15 be bd cf cb 3e
       -0.0052024224 0.40961054 -0.14602675 0.3980693
000230 32 ed 8a be c4 82 ce 3e aa 8a 12 3e 4b b9 3c be
       -0.2713409 0.4033414 0.14310709 -0.18430059
000240 d5 8a be 3e c1 2e 93 3e 85 d6 a2 bc a7 ec 36 3d
       0.37215295 0.28746608 -0.019877682 0.044659283
000250 53 29 bd 3e 8f 11 c8 3d 11 b2 c9 be f1 1f 01 3e
       0.3694559 0.09768974 -0.39393666 0.12609841
000260 06 69 e0 bd c1 7a 8e 3e ea ac 72 3e 3c 8b 96 3e
       -0.10957532 0.2782803 0.23698774 0.29403102
000270 aa 2a c8 be 65 4c c6 3d 5c dc bd 3d 9b a4 65 be
       -0.3909505 0.0968254 0.09270546 -0.22426073
000280 20 d2 16 3e 8e e6 b7 3d d1 ed 03 be b2 e7 3b bd
       0.14728594 0.08979522 -0.12883689 -0.04587526
000290 00 fb c2 be 75 68 af be 90 fa 29 be 9b 0f 92 3d
       -0.38082123 -0.34259382 -0.16599488 0.07131883
0002a0 09 31 24 3c 7a c4 aa bd 25 0d 39 be cc 85 5c 3e
       0.0100214565 -0.08338256 -0.1807142 0.21535414
0002b0 cc 4a dd 3d 87 11 d1 bd 28 09 95 be 4e 35 b0 be
       0.10805282 -0.10208421 -0.29108548 -0.34415668
0002c0 f4 63 b4 3d 7e ed 52 3e 2a 82 59 3e ca 00 99 3e
       0.08808127 0.20598409 0.2124106 0.29883415
0002d0 40 40 93 be 5b 39 bf 3e 29 bb e3 3d e3 69 58 3c
       -0.28759956 0.37348446 0.11119682 0.013208839
0002e0 4b 5b 2f 3e 01 09 aa 3e 5b 63 db 3d da 83 0b 3d
       0.17124669 0.33209994 0.1071231 0.03406129
0002f0 bc 36 b9 3d 33 b9 30 be a4 5a 38 be d7 94 4a 3e
       0.09043643 -0.17258148 -0.18003327 0.1978334
000300 d5 11 8b 3d 56 33 ae be 12 3a 56 be 5f ad e2 bd
       0.067905106 -0.3402354 -0.2092059 -0.11068224
000310 36 0d 1f 3d 69 79 ef 3d 8c fd 92 be 1b bd 99 bc
       0.03883096 0.11693079 -0.28709066 -0.01876693
000320 9d 09 82 be ac 50 9c be 24 34 6b 3d dd 07 fe 3d
       -0.2539796 -0.30530298 0.057422772 0.124038436
000330 9d 1c 72 3c 15 e0 3a 3b 3a 43 af 3e 0d f3 83 3d
       0.01477733 0.002851491 0.34230977 0.06442843
000340 7f d3 7e bd 70 d0 8d be 67 3e f3 3d ac fb a3 be
       -0.062213417 -0.27698088 0.11877137 -0.32027948
000350 f9 d3 ad be e7 5c d0 3e 6d e8 49 3d e4 b2 99 3e
       -0.33950785 0.4069588 0.049293924 0.30019295
000360 8a 4b 81 3e e3 d7 42 be c4 37 a7 3e d5 a5 bf be
       0.25252944 -0.19027667 0.32659733 -0.37431207
000370 aa cd b8 be d0 07 05 be eb 3a 54 be 33 cc ae 3d
       -0.3609441 -0.12991261 -0.207256 0.08535042
000380 d2 b9 28 3e d3 6b 95 3e 7f 2e be bd a8 53 9a 3e
       0.16477135 0.29183826 -0.09286212 0.3014195
000390 57 2f 89 3e e6 f5 8a 3e 95 ec 14 3d 06 22 6a 3e
       0.2679393 0.2714073 0.036358435 0.22864541
0003a0 18 b3 20 bd 59 49 9b bd 1a a9 08 bd a2 7f db bd
       -0.039233297 -0.07582349 -0.033364393 -0.107177034
0003b0 c7 49 82 be 3c 9c a0 3e a3 3c 99 be b8 95 54 3d
       -0.25446913 0.31369197 -0.29929075 0.051900595
0003c0 cb 27 c6 3e 21 cf 82 bd fa f0 9f be f1 32 c9 3d
       0.38702235 -0.06387163 -0.31238538 0.098241694
0003d0 87 94 bf be c7 72 91 be bc 09 d0 3d 85 a3 9d be
       -0.37418005 -0.2840788 0.10158107 -0.30788818
0003e0 5d e2 a6 3d 66 15 40 be 45 26 8a be b1 ea ba be
       0.08148644 -0.18758163 -0.26982322 -0.3650718
0003f0 cc f9 c2 bc 99 d2 2c 3e 11 8c 55 3e 83 30 55 3e
       -0.023800753 0.16877212 0.20854212 0.20819287

lin_layer_2.weight f4 [1, 500]
000000 4d 5a ab bc 85 48 67 3e 34 2c 97 3d 6c 5f 4a 3e
       -0.020917082 0.22586258 0.07381478 0.19762963
000010 62 a8 01 3e 7f 29 7a be ad f3 df bb 55 da 2f be
       0.12661889 -0.24429892 -0.0068344683 -0.17173131
000020 86 56 2a be 40 a8 15 ba 93 a1 24 bd 42 89 94 3d
       -0.16634569 -0.000570897 -0.04019315 0.07252742
000030 dd 95 61 bd dc e8 36 be 4e cb 31 3e 57 6a d9 bd
       -0.05507456 -0.17862266 0.17362711 -0.10615986
000040 31 d7 16 3d 23 45 47 3e 64 88 8f bd 90 e6 59 be
       0.036826316 0.19459967 -0.07008436 -0.21279359
000050 4f 28 c2 bd 9d 65 03 3d 83 59 05 bd 20 b3 9c bd
       -0.094803445 0.032079328 -0.03255607 -0.07651353
000060 75 cf d8 bd 7b 15 dd 3c 40 33 8e bd b6 41 5d 3c
       -0.10586444 0.026987782 -0.06943369 0.013504436
000070 fd 9c 6e bd d6 13 98 3d 6d 86 92 3d b9 b6 ad bd
       -0.058255184 0.074256584 0.07154546 -0.08482117
000080 cd 2a 0c be f4 e1 6e 3b 1f da 51 3e 03 60 f9 bd
       -0.13688202 0.0036450597 0.20493363 -0.12176516
000090 31 26 99 bb 56 be 78 bc f8 a3 7a be 40 11 3f 3d
       -0.004673742 -0.015182098 -0.24476612 0.04664731
0000a0 2b 52 53 3d 27 98 4a 3e 40 3d 27 be da 03 07 be
       0.051592033 0.19784604 -0.16331959 -0.13185063
0000b0 72 8f 5b be 9d 01 80 bd 80 c7 24 be 16 d7 71 3e
       -0.21441439 -0.06250308 -0.16091728 0.23617205
0000c0 76 83 8c be 7e a1 e5 3d 7c 21 2c 3e ee c6 54 bd
       -0.27444047 0.11212443 0.16809648 -0.051947527
0000d0 2d 52 a0 bd 86 af 5e 3e f2 00 3a bd 75 f9 c3 bd
       -0.07828174 0.21746644 -0.045411058 -0.095690645
0000e0 65 5f d4 bc 60 7e 8a be 2e 4a a6 3d 71 ed da bd
       -0.025924394 -0.2704954 0.081196174 -0.106898196
0000f0 a6 11 57 3e c8 cb 4a be cb 9f 87 bc ff 5d b5 bd
       0.21002826 -0.19804299 -0.016555687 -0.08855819
000100 ec a5 91 bd 95 0d 48 bd 10 21 01 3e 9a fa 85 bd
       -0.07111725 -0.048841078 0.12610269 -0.06541939
000110 4a bd 8d 3c 06 bc 95 be 13 8a a5 bc 5f 34 9e 3b
       0.017302174 -0.29245013 -0.02020744 0.0048280205
000120 a7 1b 8d bd 4a 82 6e 3e 21 b2 e9 bd 7a 5a 45 be
       -0.0689004 0.23291889 -0.114109285 -0.19272795
000130 92 c2 91 3c b1 c6 27 3c a6 ee 64 bd fe f2 c1 bd
       0.017792974 0.010240243 -0.055891655 -0.09470175
000140 74 09 90 3d 41 15 42 3e 10 04 c5 3b 9e bd ca 3d
       0.07033053 0.1895342 0.006012447 0.09899448
000150 6b a3 12 be 47 60 37 be 88 c6 68 3c 55 33 fc bd
       -0.14320152 -0.1790782 0.01420749 -0.12314478
000160 f5 0d 12 be 93 b0 13 bd 9d 03 2e be c3 20 cd bb
       -0.14263137 -0.036057066 -0.16993566 -0.006260009
000170 c6 40 68 be 7e 24 14 3e 3a 2d b1 bd 7f b8 e8 3d
       -0.22680959 0.14467046 -0.086512044 0.11363315
000180 d4 a6 b1 3d 58 a2 1c bd 1f 46 ef 3c df 91 9d bd
       0.08674398 -0.03824076 0.029208241 -0.07693838
000190 4d d2 d5 3d c2 06 a9 bc 40 df 2a bd 0b 13 5a be
       0.10440502 -0.020633105 -0.041716814 -0.21296327
0001a0 05 43 6b be 7a 43 e0 3b 6c ac ad b9 6f 46 a3 3e
       -0.22974785 0.0068439813 -0.00033125596 0.31889674
0001b0 60 26 3a 3d bd 5f b4 bd c8 cb 89 bd 89 97 93 be
       0.045446754 -0.08807323 -0.06728321 -0.2882655
0001c0 da 3a bf 3e a2 f0 d8 3c f8 68 04 3e 99 97 da bd
       0.37349588 0.02648193 0.12930667 -0.10673446
0001d0 60 13 46 3e 22 45 e7 bb cf 55 80 3b 44 5c 46 3e
       0.19343328 -0.007057802 0.003916479 0.19371134
0001e0 22 36 a9 3d f3 a6 9b be 5a 7e 08 3e 73 dd 05 3b
       0.08262278 -0.3040081 0.1332945 0.0020426183
0001f0 dc 08 29 3e 8b c8 93 bd b6 4c 9a 3e 0b ba 28 3d
       0.16507286 -0.07215985 0.3013665 0.04119305
000200 0a 7a b6 bd d6 06 6b be f0 95 0a be 07 0c f6 3d
       -0.08909996 -0.22951826 -0.13533759 0.12014013
000210 66 f5 b9 bd a9 e2 78 bd a2 b6 f1 bc b3 ee 30 3d
       -0.09080009 -0.060763035 -0.029506031 0.04319639
000220 74 47 05 3c e2 bf 93 be 64 47 7a be 1b 5c b3 3d
       0.0081347115 -0.28857332 -0.24441296 0.08757802
000230 8e 64 e0 3d fd c0 95 3d 59 9a 53 3d 7b 9f f5 3c
       0.10956679 0.073122 0.05166087 0.029983273
000240 42 20 2b be c3 05 66 bc 5a e6 c0 bd 67 2d 74 be
       -0.16711524 -0.01403946 -0.09418936 -0.23845445
000250 17 75 ad bd 65 1a 35 3d c9 99 94 3d c9 15 c0 3c
       -0.08469599 0.044214625 0.07255895 0.023447888
000260 80 ba 15 bd c9 de 8c be ed 21 38 3d 7a 26 15 3e
       -0.036554813 -0.27513722 0.04495423 0.14565459
000270 5f ea a8 bc 41 1c 62 3d 04 13 19 bd c7 35 2d bc
       -0.02061957 0.055202726 -0.03737165 -0.010571904
000280 06 d0 3f bc 77 fb 05 be 98 bd b3 3d 16 56 86 be
       -0.0117073115 -0.13084207 0.087763965 -0.26237553
000290 0c 48 3b 3e 3c bd 1b 3b 9a 69 23 3c af 1f 18 bd
       0.18289202 0.0023763916 0.009973908 -0.03713959
0002a0 a8 7a 4f 3e 30 e0 f8 bc d1 ae c6 bd ba 04 5f 3d
       0.20261633 -0.030380338 -0.09701312 0.054447867
0002b0 a4 78 a0 bd 2e d1 4f be bd de 25 b9 cc 1b 67 be
       -0.078355104 -0.2029464 -0.00015818603 -0.22569197
0002c0 e1 de 5c 3d 3c 80 3a be 7c ee 1e 3e 1f 9e c9 3d
       0.05392349 -0.1821298 0.15520662 0.09844612
0002d0 d4 33 9e 3c 50 f7 1a bd a9 61 ee bd 2c 96 68 3d
       0.019311823 -0.03783351 -0.11639721 0.05678384
0002e0 48 9a 89 bc c1 99 4b 3c 3b 5f ef 3c 60 23 fa 3c
       -0.0167972 0.0124267945 0.029220214 0.030534446
0002f0 31 ee 21 be b0 23 80 bc 24 08 38 bc ee 62 ac bc
       -0.15813519 -0.015642017 -0.01123241 -0.021043267
000300 58 cf 3e be 15 47 44 bd b5 1a 0e bd 15 58 95 3d
       -0.18633783 -0.04791935 -0.03469344 0.07292191
000310 c5 53 46 be 21 34 67 3e 8a 4a 74 bd 22 18 2d be
       -0.19367893 0.2257848 -0.0596414 -0.16903737
000320 65 d7 23 3b f4 a3 3b 3e ea 80 92 3d 8f 4b eb 3d
       0.0025000211 0.18324262 0.07153495 0.11489021
000330 b3 62 c4 3c 3f 1d 19 bd 27 ae 61 bc fa da 8e be
       0.023972845 -0.037381407 -0.013774431 -0.2790144
000340 e9 15 61 3d 71 e7 14 3c bf b4 f7 3d 65 87 ee bd
       0.054952536 0.009088383 0.120950215 -0.11646918
000350 6c 53 fb bd aa aa 10 3d 38 1e 92 be c3 96 cb bd
       -0.12271771 0.035319008 -0.2853868 -0.09940865
000360 e2 26 78 be dd 85 78 3d 18 5c e1 bd 2b 63 37 3e
       -0.24233583 0.060674537 -0.110038936 0.17908923
000370 f3 a9 53 3e a0 7c 91 3e 78 bb 8c bc d4 8b 23 bd
       0.20670299 0.28415394 -0.017179236 -0.039928272
000380 bc 01 ce ba 65 c1 59 be f8 6a b0 3d 8c e8 2e be
       -0.001571707 -0.2126518 0.08614153 -0.17080897
000390 5b 35 ff bd 5b 76 17 be a0 7a a7 3e 1c 20 0e 3e
       -0.124613486 -0.14791243 0.32710743 0.13879436
0003a0 5e ee 32 3e a5 10 e1 bd 6e a7 e8 bd 5e ec c6 bd
       0.17473742 -0.10989503 -0.1136006 -0.09713052
0003b0 76 39 09 bd e9 11 12 be 89 31 ef bd 69 78 c0 3c
       -0.033502065 -0.14264645 -0.1167937 0.023494916
0003c0 ab 20 b3 3c dd ee 6a 3d 19 0c a6 3d c8 6d 8b bc
       0.021866163 0.057356704 0.08107776 -0.017020121
0003d0 f3 5a 93 3d 19 51 30 be 5d fc 21 be 61 87 54 bb
       0.071950816 -0.17218436 -0.15818925 -0.0032429325
0003e0 41 fe 24 bd 2c 65 11 bd 13 f0 56 be 9e 09 14 3e
       -0.040281538 -0.035496876 -0.20990019 0.14456794
0003f0 bf b8 31 3e 64 b8 13 3e 6c c1 8c 3b bd cd 59 3e
       0.17355631 0.14425808 0.0042955186 0.21269889
