Part4_Neural-Network-for-Collision-Prediction/saved/saved_model.pkl (torch_old, 1216 bytes, 3 tensors)

lin_layers.0.weight f4 [10, 6]
0.22574356 0.20716058 0.10776132 -0.15066911 -0.21545815 0.18669367 -0.10164682 0.24432817
-0.22831541 0.4113686 -0.3606811 -0.066647984 -0.09693756 0.0058820327 0.40432653 0.120910294
0.13941865 0.2829549 0.31293914 -0.118680455 -0.3766576 -0.29155815 0.217253 0.02007556
-0.060816456 -0.10278852 -0.31783497 0.12629922 -0.26436433 -0.38765344 0.0011289539 -0.021474054
-0.40026635 -0.31655663 -0.13874738 -0.32934844 0.12539689 0.31656787 -0.34959617 -0.25332373
0.06682808 -0.31178105 0.11908666 -0.21460706 0.021361157 0.193868 0.37735492 -0.3807228
-0.20591296 0.14885834 0.2588802 0.27140558 -0.24020413 -0.32500407 0.19034421 -0.078085445
0.24771617 -0.09900326 0.2076561 0.14604405
00000000: 5229 673e e721 543e f8b1 dc3d 0149 1abe
00000010: 10a1 5cbe a02c 3f3e 352c d0bd 2a31 7a3e
00000020: 84cb 69be e89e d23e 31ab b8be bd7e 88bd
00000030: 3387 c6bd 11be c03b e303 cf3e d19f f73d
00000040: c3c3 0e3e 77df 903e 8f39 a03e bd0e f3bd
00000050: 44d9 c0be 1c47 95be 9277 5e3e 8075 a43c
00000060: ad1a 79bd ca82 d2bd 44bb a2be 9554 013e
00000070: c35a 87be 837a c6be 68f9 933a 5bea afbc
00000080: b6ef ccbe b613 a2be cb13 0ebe 5ca0 a8be
00000090: 0b68 003e 2f15 a23e 45fe b2be a6b3 81be
000000a0: 29dd 883d c4a1 9fbe b5e3 f33d f4c1 5bbe
000000b0: 98fd ae3c 5585 463e aa34 c13e 19ee c2be
000000c0: d9da 52be 526e 183e f28b 843e acf5 8a3e
000000d0: 12f8 75be ef66 a6be 98e9 423e 43eb 9fbd
000000e0: 4fa9 7d3e 39c2 cabd cda3 543e 928c 153e

lin_layers.0.bias f4 [10]
0.08709146 -0.040374853 0.24528435 -0.12268806 -0.21396965 -0.12407958 0.29384547 0.35982376
-0.105165415 0.042235594
00000000: 025d b23d 1a60 25bd d22b 7b3e e143 fbbd
00000010: dc1a 5bbe 6f1d febd ea72 963e d23a b83e
00000020: f760 d7bd 3bff 2c3d

lin_layers.1.weight f4 [1, 10]
0.11573344 -0.26515245 0.20978889 0.22531858 -0.21292268 -0.09813719 -0.1128268 0.01651719
-0.03148262 0.22969504
00000000: a705 ed3d 10c2 87be e6d2 563e eab9 663e
00000010: 6708 5abe 27fc c8bd bd11 e7bd 0f4f 873c
00000020: ebf3 00bd 2d35 6b3e
