Part4_Neural-Network-for-Collision-Prediction/saved/saved_model.pkl (torch_old, 4066 bytes, 3 tensors)

lin_layer_1.weight f4 [100, 6]
0	0x3cfb0a94	0.030644692
1	0x3e71108c	0.23541468
2	0xbeecfe7b	-0.46287903
3	0xbf0edf02	-0.5580903
4	0xbf2c9c5d	-0.6742609
5	0xbce58867	-0.028019143
6	0x3f1c2b54	0.61003613
7	0x3f233e5e	0.6376704
8	0x3e185939	0.14877786
9	0xbe5b1352	-0.21394089
10	0xbd5a7fc4	-0.053344503
11	0x3e277900	0.16354752
12	0xbe8ed2e2	-0.27895266
13	0x3d06747b	0.03282593
14	0x3e082ca3	0.13298278
15	0xbedaa6b4	-0.4270531
16	0xbda51eaa	-0.08062489
17	0x3ebbe1cc	0.36695707
18	0x3ed8280e	0.4221806
19	0xbc7f2916	-0.0155737605
20	0xbe241a4a	-0.16025653
21	0x3f02dbf2	0.5111686
22	0xbddedf76	-0.108824655
23	0x3cb01278	0.021493182
24	0xbe970939	-0.29499224
25	0xbd88de54	-0.06683031
26	0xbea9c7be	-0.33160204
27	0xbebb7a10	-0.36616564
28	0x3d80d437	0.06290477
29	0x3e5eb5eb	0.21749084
30	0x3e29e4c9	0.16591181
31	0x3eaa82f8	0.33303046
32	0x3dddeec7	0.10836559
33	0x3c420da8	0.011844076
34	0x3e086b6d	0.1332223
35	0x3ecf2f10	0.40465593
36	0x3e523c65	0.20530851
37	0x3eabe9b5	0.33576742
38	0xbc5eb4cb	-0.013592909
39	0x3d16695f	0.036721583
40	0x3efe7e80	0.49705887
41	0x3db360af	0.08758675
42	0x3df87325	0.12131337
43	0x3efd5a9c	0.49483192
44	0x3d0ed5fd	0.034872044
45	0x3d99516d	0.07486234
46	0x3e80a3d5	0.25124994
47	0x3ea31375	0.31850782
48	0x3e1017fc	0.1407165
49	0x3da653a1	0.0812142
50	0xbe78489a	-0.24246445
51	0xbf26e69a	-0.6519562
52	0xbf00f84a	-0.5037886
53	0xbe8a0dba	-0.26963598
54	0x3f0b7a82	0.5448381
55	0x3ea78045	0.3271505
56	0x3e583ef8	0.2111777
57	0x3df275a0	0.118388414
58	0x3ec295eb	0.38005003
59	0xbdd72af8	-0.105062425
60	0x3ec2d083	0.38049707
61	0x3ebc1cb8	0.3674066
62	0xbe781d5f	-0.24229954
63	0x3e6dd835	0.23227008
64	0xbdfb6818	-0.12275714
65	0x3e1ab7ba	0.15109149
66	0x3f14fbca	0.581967
67	0xbce847c4	-0.028354533
68	0x3ec06039	0.37573412
69	0x3f14ab69	0.5807405
70	0xbe1db38c	-0.15400523
71	0x3ec9fbe0	0.39449978
72	0xbec431ca	-0.38319236
73	0xbf1fa2d8	-0.62357855
74	0x3d7e427e	0.06207513
75	0xbec8e48c	-0.39236867
76	0xbbf53acd	-0.0074838162
77	0x3eceb95d	0.40375796
78	0x3e8444cd	0.2583374
79	0x3ec93efe	0.39305872
80	0x3d65bdca	0.0560892
81	0x3efe5363	0.49672994
82	0xbe174496	-0.14772257
83	0x3e8e4157	0.27784225
84	0x3e348b9d	0.17631383
85	0xbe7d6c9a	-0.2474846
86	0xbd73794c	-0.05944185
87	0x3d4297a4	0.047507897
88	0xbc87501f	-0.016517697
89	0x3ec91155	0.39271036
90	0xbeb72f9b	-0.35778508
91	0x3ecb0fe4	0.3966056
92	0x3c048523	0.008088383
93	0xbd77a393	-0.06045873
94	0xbe034204	-0.12818152
95	0xbe7ab01e	-0.24481246
96	0x3f0227af	0.508418
97	0x3e34ca19	0.17655219
98	0x3e19a1f5	0.15003188
99	0x3e03415c	0.12817901
100	0xbe1d9625	-0.15389307
101	0xbe015812	-0.12631252
102	0x3f27d2dc	0.6555612
103	0x3ec8e185	0.39234558
104	0x3ead099b	0.3379639
105	0x3d51811b	0.051148515
106	0xbae74f69	-0.0017647567
107	0x3cf43f7b	0.029815426
108	0x3e06439e	0.13111731
109	0xbec83f76	-0.39110917
110	0xbef87533	-0.48526916
111	0xbe35f24a	-0.17768207
112	0xbca3cf2b	-0.019996246
113	0x3eb86746	0.3601629
114	0x3eb1906c	0.34680498
115	0x3ee4a79b	0.44659123
116	0x3de0b084	0.10971168
117	0x3eb1a58e	0.3469662
118	0x3ec0964c	0.37614667
119	0xbc7fc345	-0.015610521
120	0x3ea2978f	0.31756255
121	0xbe4bc570	-0.19899535
122	0x3e20aa7b	0.15690033
123	0xbdeb3b97	-0.11485975
124	0xbef90125	-0.48633686
125	0xbde784a8	-0.11304599
126	0xbee82cc5	-0.45346656
127	0xbf02da68	-0.5111451
128	0xbea1959d	-0.31559458
129	0xbf417dd0	-0.755826
130	0xbf2d9c47	-0.67816585
131	0x3e41777e	0.18893239
132	0xbf00c9e5	-0.50308067
133	0x3d464855	0.048408825
134	0x3d1d1573	0.038350534
135	0xbf103111	-0.5632487
136	0xbf1725fd	-0.5904234
137	0x3e5c465d	0.21511216
138	0xba8fba4c	-0.0010965555
139	0xbebc68ef	-0.36798808
140	0xbe0e4929	-0.13895096
141	0xbe30ff72	-0.17284945
142	0xbf076eb1	-0.52903277
143	0x3eb11e13	0.34593257
144	0x3dfa7ac4	0.12230447
145	0xbc0e76e1	-0.008695335
146	0x3ec3c0b1	0.3823295
147	0xbe321760	-0.1739173
148	0x3d0ba32d	0.034091163
149	0xbec765cc	-0.38944852
150	0xbf3b34dd	-0.7312754
151	0xbf44bf3e	-0.7685431
152	0xbea26227	-0.3171551
153	0xbe95f378	-0.29287314
154	0xbe453d3a	-0.19261637
155	0x3ed7a2b8	0.42116332
156	0xbe59eee4	-0.21282536
157	0x3e028eaf	0.12749742
158	0x3ea79d18	0.3273704
159	0x3f068791	0.5255061
160	0x3f1a819e	0.6035403
161	0x3e257859	0.1615919
162	0xbf456e12	-0.7712108
163	0xbf5fb16a	-0.8738009
164	0xbe8cac73	-0.27475318
165	0x3e43802d	0.19091864
166	0xbd459880	-0.04824114
167	0x3dec4b91	0.11537851
168	0xbdc13dcf	-0.09435617
169	0x3df6e8f8	0.12056154
170	0x3e075081	0.13214304
171	0xbe47c924	-0.19510323
172	0xbeaf0d28	-0.34189725
173	0x3ebb4aa1	0.36580375
174	0x3f06647d	0.5249708
175	0x3f03ee88	0.51535845
176	0x3dfd7329	0.12375481
177	0xbe12d2f1	-0.1433828
178	0xbe76cb94	-0.24101096
179	0xbd3ba2df	-0.045809623
180	0x3dbac834	0.09120217
181	0xbef7fa6d	-0.48433247
182	0xbf0bc8ed	-0.54603463
183	0xbebb5c69	-0.3659394
184	0xbf249ef8	-0.6430507
185	0x3ebfd870	0.37469816
186	0x3ed50172	0.41602665
187	0x3e3edafe	0.18638226
188	0x3c9b3934	0.018948175
189	0x3e5594c9	0.20857538
190	0xbe8546d4	-0.260306
191	0xba284c9b	-0.00064201065
192	0xbdef1dac	-0.11675581
193	0x3dd60e66	0.10451965
194	0xbedf249f	-0.43582627
195	0xbeaf21e1	-0.34205535
196	0xbe7f900c	-0.24957293
197	0x3d438a0a	0.047739066
198	0xbe9bda1e	-0.30439848
199	0xbe848588	-0.25883126
200	0xbedd9492	-0.43277413
201	0xbea8d61c	-0.32975852
202	0xbe516944	-0.20450312
203	0x3ea47299	0.3211868
204	0x3e234759	0.15945186
205	0xbf0bd1c1	-0.54616934
206	0xbe9395d5	-0.2882525
207	0xbe86be8a	-0.26317245
208	0xbdcf6782	-0.101271644
209	0xbe436d5d	-0.19084688
210	0x3e684481	0.22682382
211	0x3d97309f	0.073823206
212	0x3ed51f7e	0.4162559
213	0xbcb15354	-0.02164618
214	0x3c0a149d	0.008427766
215	0xbded2ca9	-0.11580784
216	0xbf102ada	-0.56315386
217	0xbe8682be	-0.26271623
218	0xbeef2e38	-0.4671495
219	0xbf25bab7	-0.6473803
220	0x3d140d2b	0.03614537
221	0xbe9cd71c	-0.30632865
222	0x3e9b89b3	0.30378494
223	0xbe4fe97b	-0.2030391
224	0xbecc3e12	-0.39891106
225	0x3e937417	0.28799507
226	0xbe931bcc	-0.28732145
227	0xbe613e62	-0.21996453
228	0xbe03cb02	-0.1287041
229	0xbddf750a	-0.10910995
230	0xbef5622f	-0.4792647
231	0xbf12ddcd	-0.5736969
232	0xbe4c93e7	-0.19978295
233	0xbe0543e0	-0.13014174
234	0xbf386c34	-0.72040105
235	0xbf15974b	-0.5843398
236	0xbeae1163	-0.3399764
237	0xbabcecab	-0.0014413794
238	0xbdae00aa	-0.084962204
239	0x3ea19d96	0.3156554
240	0x3e28babc	0.16477484
241	0x3f08b7f9	0.5340572
242	0x3ec8834b	0.3916267
243	0x3e99e6ed	0.30058995
244	0x3dcd6e3e	0.10030793
245	0xbeba13d1	-0.36343244
246	0xbf024336	-0.50883806
247	0xbe31aa81	-0.17350198
248	0xbf1953c0	-0.5989342
249	0xbed738ce	-0.42035526
250	0xbf24f898	-0.64441824
251	0x3eb4fb84	0.3534814
252	0xbf0ff569	-0.5623384
253	0xbed1c1dc	-0.40968215
254	0xbf06ba12	-0.5262767
255	0xbebb996f	-0.36640498

lin_layer_1.bias f4 [100]
0	0x3e458d96	0.19292292
1	0x3e814725	0.2524959
2	0xbe6f3165	-0.23358686
3	0x3dab1de5	0.08355311
4	0x3e650f6a	0.22369161
5	0xbec00a28	-0.3750775
6	0x3e436e90	0.19085145
7	0xbe69037f	-0.2275524
8	0xbe7f72a4	-0.24946076
9	0xbed030cf	-0.40662238
10	0x3e979fbf	0.29614064
11	0xbecc7697	-0.39934227
12	0xbe900ec0	-0.28136253
13	0xbe4c1613	-0.19930296
14	0x3e846637	0.25859234
15	0xbeb9a3dc	-0.36257827
16	0xbe556517	-0.20839344
17	0xbd932799	-0.07185287
18	0x3d85e650	0.06538069
19	0xbe938720	-0.2881403
20	0xbe414486	-0.18873796
21	0x3f72eee7	0.94895786
22	0x3e442bde	0.19157359
23	0x3e8c846f	0.2744479
24	0x3d220950	0.039559662
25	0x3ee24a5a	0.4419735
26	0x3d2f117a	0.042741276
27	0xbd508b71	-0.05091423
28	0xbe054429	-0.13014282
29	0x3e9b5761	0.30340102
30	0x3d4e0195	0.050294477
31	0x3e63a6bd	0.22231574
32	0x3d5bdaff	0.053675648
33	0x3d1be362	0.038058646
34	0xbe29f821	-0.1659856
35	0xbc8c0db7	-0.017096383
36	0x3f09d7fd	0.53845197
37	0x3e652097	0.22375713
38	0x3e147dd5	0.14501126
39	0x3d7b56ef	0.061362203
40	0xbe3d0c1e	-0.18461654
41	0x3f15e77a	0.5855633
42	0x3f056eef	0.52122396
43	0x3dd1c4da	0.102426246
44	0x3ea76586	0.32694644
45	0xbe6685ac	-0.2251193
46	0xbd8dc4c8	-0.06922299
47	0xbeb35a5d	-0.3502988
48	0x3eba8e5a	0.3643673
49	0xbe860e25	-0.26182666
50	0x3e99db00	0.30049896
51	0x3ef401b4	0.4765755
52	0xbee54721	-0.4478083
53	0xbe87070a	-0.26372558
54	0xbe85298b	-0.26008257
55	0xbe20ae9f	-0.15691613
56	0x3ecf4829	0.4048474
57	0x3e87fe88	0.2656138
58	0xbe20d88a	-0.15707603
59	0x3e0d28f3	0.13785152
60	0xbc787117	-0.0151636815
61	0xbece2f38	-0.402704
62	0x3c11f28a	0.0089079235
63	0x3e0474f5	0.1293524
64	0x3e61106f	0.21978925
65	0x3eba2b61	0.3636122
66	0x3bfd8750	0.007737078
67	0x3e83ce45	0.2574331
68	0x3ec19b5a	0.37813836
69	0x3e06d756	0.13168082
70	0x3e7e7f24	0.24853188
71	0xbe74030a	-0.23829284
72	0x3ee6a824	0.45050156
73	0xbea7cd16	-0.32773656
74	0x3da72289	0.08160884
75	0x3e9e4d9d	0.3091859
76	0x3ea26730	0.3171935
77	0xbc1ecda8	-0.009692587
78	0x3df2a5f7	0.118480615
79	0xbd7d6a99	-0.061869238
80	0x3e32ba1c	0.17453808
81	0xbe2eca4a	-0.17069355
82	0x3e5ab02b	0.21356265
83	0x3ea26feb	0.31726012
84	0x3d6afebd	0.057371844
85	0x3e14bec6	0.145259
86	0x3ebb0b31	0.36531976
87	0x3e370267	0.1787201
88	0xbe010e1c	-0.12603039
89	0x3e4dfbb0	0.20115542
90	0x3e461bca	0.19346538
91	0xbdc5db07	-0.09660917
92	0x3e7536e6	0.23946723
93	0x3e572cff	0.21013258
94	0xbdedc926	-0.11610632
95	0x3ec8ff8f	0.39257476
96	0x3ebb8f08	0.36632562
97	0xbdf04952	-0.11732735
98	0xbe87f6f3	-0.26555595
99	0x3d570029	0.052490387

lin_layer_2.weight f4 [1, 100]
0	0x3f32de0b	0.6987006
1	0xbf03dbb2	-0.51507103
2	0x3ec941a8	0.39307904
3	0xbe715e49	-0.23571123
4	0x3f0aec9d	0.54267293
5	0xbe994b77	-0.29940388
6	0xbec4d981	-0.38447192
7	0xbecab887	-0.39593908
8	0x3f3deda0	0.7419071
9	0xbf1c9435	-0.61163646
10	0xbe78ffd6	-0.24316344
11	0xbf12148a	-0.5706259
12	0x3f4f0a93	0.8087551
13	0xbed4dfd8	-0.4157703
14	0x3e25da3f	0.16196536
15	0x3e018263	0.12647395
16	0xbe779ca2	-0.24180844
17	0xbf1c92f5	-0.6116174
18	0x3efc3d57	0.4926555
19	0xbf2f959c	-0.6858766
20	0x3e97e4e5	0.2966682
21	0x3fe252ca	1.7681515
22	0x3f5e7342	0.8689462
23	0x3f1cc5df	0.6123943
24	0x3bb30b38	0.005463984
25	0x3fa392e5	1.2779204
26	0xbf0b680a	-0.54455626
27	0x3f948161	1.1601983
28	0x3e738168	0.23779833
29	0xbea72296	-0.32643574
30	0x3f8ce2d9	1.1006728
31	0xbe3a968e	-0.18221495
32	0x3f05472d	0.5206173
33	0x3f485374	0.7825234
34	0x3f26d794	0.65172696
35	0xbe3027e2	-0.17202714
36	0x3f96db5b	1.1785692
37	0x3e555163	0.20831828
38	0x3f5ca1ad	0.861842
39	0x3f75eb60	0.9606228
40	0xbf136c7d	-0.57587415
41	0x3fa496c2	1.2858508
42	0x3f9a85f4	1.2072129
43	0xbf24b61f	-0.64340395
44	0x3efb99e2	0.4914084
45	0xbee58f09	-0.4483569
46	0x3f7c0e91	0.98459727
47	0xbe9127a1	-0.28350547
48	0x3f72bf5e	0.94823253
49	0xbedda667	-0.43291017
50	0xbe967842	-0.29388624
51	0x3f8bae01	1.0912477
52	0xbf4d3bfd	-0.8016966
53	0xbf2ab085	-0.666756
54	0xbea2c22c	-0.31788766
55	0xbf42372b	-0.7586543
56	0x3efd9a15	0.49531618
57	0xbebbbb00	-0.36666107
58	0xbf495ebb	-0.7866017
59	0xbe856339	-0.26052263
60	0xbe1b86a3	-0.15188079
61	0xbd046478	-0.032322377
62	0x3d540db4	0.05177088
63	0x3f19eff6	0.60131776
64	0x3d400b7f	0.046885964
65	0x3f60210d	0.8755043
66	0x3e7880a0	0.24267817
67	0x3f73d883	0.95252246
68	0x3e8edb3d	0.2790164
69	0x3dc57261	0.09640957
70	0x3f05c40c	0.5225227
71	0x3f659c60	0.89691734
72	0x3f5acd14	0.85469174
73	0xbf501887	-0.81287426
74	0x3ca697d7	0.020336075
75	0xbe65ad88	-0.22429478
76	0x3ea3163e	0.31852907
77	0xbf32cced	-0.6984394
78	0xbdb85eb1	-0.09002436
79	0xbf112124	-0.56691194
80	0x3f919d4c	1.1376128
81	0x3ee65f46	0.44994563
82	0xbec7a1e3	-0.38990697
83	0x3f45ee36	0.77316606
84	0x3e40fbae	0.18846008
85	0x3f336f2e	0.7009152
86	0x3f82d8e4	1.022244
87	0x3f450cda	0.76972735
88	0x3f08561c	0.5325639
89	0xbec7e7b7	-0.39043972
90	0x3e323e3c	0.17406553
91	0xbe777d47	-0.24168883
92	0x3f6da8c1	0.92835623
93	0xbea96973	-0.33088264
94	0x3e820d8d	0.25400963
95	0x3d916b69	0.07100565
96	0x3f939d55	1.1532389
97	0xbf2d3105	-0.6765292
98	0xbe7f2191	-0.24915148
99	0x3a13a748	0.0005632532
